p1_navigation/checkpoint.pth (torch_old, 28517 bytes, 6 tensors)

model.0.weight f4 [64, 37]
00000000: ade0 b53d ecf5 b4ba d90b 2fbe 8f74 f6bb
00000010: 2688 c33c 7d2b f63d 856f f8bd 8376 513e
00000020: 15c6 c43d 03b0 36be d27f 3cbd ee11 37be
00000030: 4db0 d7bb cc89 cdbb c977 d93d 920a 34bd
00000040: ab55 ca3d 48a4 273e 9ad4 81be cfef 42bd
00000050: dc65 233e 57a2 9cbc 103f 4f3e 6acf dbbd
00000060: 45c2 d93d 67e2 65b9 b0fe 8d3e b6aa 5ebd
00000070: 8fe5 59be 5fc9 76be bdf6 b43d 942b d53d
00000080: 5ee0 76be bca0 6b3d 2a68 1ebe 0d67 30be
00000090: 91c8 93bd 9ea6 013e 162b c13d da8a 3d3c
000000a0: 4c87 3b3d 6480 92bd 554e 093e 0bfb adbe
000000b0: 83eb 3fbe 2a15 dabe 9ff5 2ebf 28b6 cd3d
000000c0: e69c 243d 7f85 07be 159d bd3d 814a 2f3e
000000d0: abae 503d 7dfa 4d3d d31d 993d 41e7 f6bc
000000e0: 74c4 1a3d c426 3ebe 4bdd 1bbd 74ce 4cbd
000000f0: 2f66 86bd 9034 213e ec1e 05be 7079 613d
00000100: ea3d 243d 7a51 353e 8285 b6bd c810 9dbd
00000110: cc62 5c3e 7147 6d3e c112 0abd 3778 0d3e
00000120: 729c 213d e6f1 4c3d 64f0 1a3e e106 e73d
00000130: 8693 d53c 38e4 f7bd 23b9 973d b205 9abe
00000140: bed9 89be 26ee a33e 91c9 8cbd 0310 c5be
00000150: 7900 613e c609 bcbe 5b38 ca3b 2b1e 31bf
00000160: b426 b6bd 10fb 9c3d 7d3e 4ebd 3950 123e
00000170: 93c2 eabd 1580 d13d ce90 f33d 6a9a 84be
00000180: 4dbb 0a3c b6f8 8ebe ff5a a8be fc37 94bd
00000190: 58bb 393e 2d39 f03d 19e7 92be 2786 54bd
000001a0: 2cb8 0bbf 523c 943d 6f14 dfbc 9d88 e1bd
000001b0: 68e7 5dbe 005b 013e 5d91 3ebc 6ee3 713e
000001c0: 6e9d 80bd 6ae3 b13d 7d53 0d3e cafa 2bbb
000001d0: 9977 9dbc 67e5 e2bc ce49 d73d 2ba0 d03d
000001e0: b1ce cd3e 35b1 513c 250a d5bd 6050 113e
000001f0: e8ce 97bc a359 be3c e8e1 723c f8cd d7bb
00000200: 7e4e a8bd a310 cbbd f9ea 5ebc 28c8 2b3d
00000210: 4c1b 7abd 1c2d 5b3e 6259 cd3d 7b9e 533d
00000220: d2b3 2d3e 80b2 85bc 232e 63bd 2e9d 8bbd
00000230: 7d02 e43c 0794 763e 80be a73d 3813 7fbc
00000240: 71f0 9fbe 0643 04bf ce9c 7c3d 26e7 dc3c
00000250: 71af c4bd a926 13be cb20 2abe 7b3b d8bd
00000260: d0f4 4e3c 3caa 943d 578a 013e d340 d1bd
00000270: fef8 9dbd 2d91 1dbe 926a b8bd 25b9 863d
00000280: 57e3 97bd d518 c4bd fa49 8bbd 06f9 65bd
00000290: 1ee4 4fbd 6171 66bd d431 57be 1693 e83d
000002a0: 87d5 01be cff6 76be b55c c43d 2b52 a03d
000002b0: 9804 633e 3108 2a3d c5db 35be 22bd a03d
000002c0: e007 103c 30c3 8fbd e348 813e 095e b0be
000002d0: ba0e 07be 1bf0 a53d 6ee5 693f 3821 90bc
000002e0: 67e5 2f3d d80d f93d 010c f3bd 7df5 01be
000002f0: efa1 24be 53b1 4fbd 5dca 453e 079a 40bd
00000300: e429 16be b4e4 68be 4a6e 14bf b73b bbbd
00000310: 3c41 25be d554 fbba d008 abbd db6a 74bd
00000320: 6395 46bd 2f47 453d 0119 afbd f3a5 c5bd
00000330: beef 86bc 96b4 9d3d 85d5 c8bd 4ccd 353e
00000340: 6fa7 10bd 7390 743d d167 93bd 59dc febc
00000350: 0051 4fbb d96c b73d b48d 0f3e 89a8 913d
00000360: e208 9ebe 5ef0 d4bd 66f3 913d a65a 5abe
00000370: 27fd f5bd 15e2 cf3d 3115 81bd cb8a df3d
00000380: 3349 2fbe 96cb 48bd f7c2 04be 6791 e5be
00000390: 0e69 51bc 3798 b9bb 9ac9 1d3e 87f1 643e
000003a0: a81c 5ebe 3e7a 7a3e 8ccd 4a3e d754 b6bc
000003b0: 3250 123e 2d2f d6be b631 213d cda8 c7b8
000003c0: 2970 b33d e24e 1bbd 19a3 b8be af3e 263c
000003d0: 8514 943e 2c68 7d3d 594c b9bd 0494 8ebe
000003e0: f00c cc3d 040f 10be a0da 11be 68c2 11be
000003f0: ce82 26bd e8c9 5f3d 703e 39bd 83b3 f4bd
0.08880744 -0.0013806201 -0.17094363 -0.007521219 0.023868632 0.120200135 -0.12130646 0.20455365
0.09608094 -0.1784058 -0.046020336 -0.17877933 -0.006582296 -0.00627253 0.1061855 -0.043955393
0.09879621 0.16371262 -0.25357515 -0.04759198 0.15956825 -0.019120378 0.202389 -0.107329205
0.10632757 -0.00021923483 0.27733374 -0.05436202 -0.21278976 -0.24100254 0.08836124 0.104087025
-0.24109027 0.057526335 -0.15469423 -0.17226811 -0.072159894 0.12661216 0.09432046 0.011568749
0.045783326 -0.07153395 0.13408788 -0.33980593 -0.18742184 -0.42594272 -0.6834354 0.10044509
0.040188693 -0.13234518 0.09258477 0.17118265 0.050947826 0.050287712 0.07476392 -0.030139567
0.03778501 -0.18569475 -0.03805284 -0.050001577 -0.06562459 0.15742707 -0.13000077 0.055047452
0.04009811 0.17706862 -0.08912183 -0.076692164 0.21522063 0.23171784 -0.03370929 0.1381539
0.03945584 0.05003538 0.15130764 0.11280609 0.026071321 -0.12104076 0.07408359 -0.3008247
-0.26923937 0.3201763 -0.06874383 -0.38488778 0.21972837 -0.36726207 0.006171269 -0.6918666
-0.08894101 0.07665074 -0.050352562 0.14288415 -0.11462893 0.10229508 0.11892854 -0.2589906
0.008467508 -0.27924126 -0.32881925 -0.07237241 0.18137872 0.117296554 -0.2869194 -0.05188575
-0.545779 0.07238068 -0.027231423 -0.11012385 -0.21670306 0.1263237 -0.011631337 0.23621914
-0.06280027 0.08685954 0.1380138 -0.0026242011 -0.019222068 -0.027697278 0.10512124 0.101867996
0.40196756 0.012798597 -0.104023255 0.14190817 -0.018531278 0.023236101 0.014824368 -0.0065858327
-0.08218096 -0.099152826 -0.0136058265 0.04193893 -0.06106119 0.21403927 0.10026814 0.05166481
0.16963127 -0.016320467 -0.05546392 -0.06817089 0.027833218 0.24079905 0.08190632 -0.015568547
-0.3123813 -0.5166477 0.061672978 0.026965689 -0.09603775 -0.14370216 -0.16614072 -0.1055822
0.01263161 0.07259032 0.12650429 -0.10217442 -0.07713507 -0.15387411 -0.09004702 0.06578282
-0.074164085 -0.09575049 -0.06801219 -0.05614569 -0.05075466 -0.05626047 -0.21015102 0.113561794
-0.1267911 -0.24117588 0.09587995 0.07828172 0.22169721 0.04151172 -0.17759617 0.07848574
0.00879094 -0.07019651 0.2525092 -0.34446743 -0.13189211 0.08102437 0.91365707 -0.017593965
0.042943384 0.121608436 -0.11867524 -0.12691303 -0.16077398 -0.05070622 0.19315477 -0.047021892
-0.14664418 -0.22743493 -0.5798079 -0.09142249 -0.16138166 -0.0019175062 -0.0835129 -0.059672218
-0.04848231 0.04816359 -0.08549691 -0.09650793 -0.01647174 0.0770046 -0.098063506 0.17754096
-0.035315927 0.05970807 -0.07197536 -0.03111093 -0.0031633973 0.08956308 0.14018899 0.07112224
-0.30866152 -0.10397409 0.07126503 -0.21323642 -0.120111756 0.101505436 -0.0630287 0.109151445
-0.17117767 -0.04902228 -0.12964998 -0.44837496 -0.012781395 -0.0056638974 0.15408936 0.2235776
-0.21690619 0.24460694 0.19804972 -0.022257252 0.14288405 -0.41832867 0.03935405 -9.520501e-05
0.08761627 -0.037917025 -0.36061934 0.010146781 0.28921905 0.061866924 -0.09047765 -0.27847302
0.09963405 -0.14068228 -0.14243555 -0.14234316 -0.04065209 0.054635912 -0.04522556 -0.11948302

model.0.bias f4 [64]
00000000: 5982 0e3e 76a5 dcbc 94a4 febd 8ae4 0e3b
00000010: f79a 033e e2b7 a4bd 0f44 e6bd df5d 8e3d
00000020: 001a 2abd dafb 46be 6cfe dd3d 2846 1f3e
00000030: 32b9 8f3d 76f8 e43d adca 9fbd 0244 73bd
00000040: 3705 c53d a479 81bb 3263 6b3c a08e 49be
00000050: 6bc5 20be 6e86 183d dbac b43c ff71 e4bd
00000060: dbed 21be f4c6 4d3e 92dc 453d f608 e4bd
00000070: a4b4 f63d 9f54 283e 1b89 f3bd bd81 0bbe
00000080: ed0d 013e 8e10 d2bb 73b2 9abd 8745 e43d
00000090: c038 35bc 1470 9a3d c735 a3bc b68f dabd
000000a0: a723 40be b52c 613c ff46 1bbe 152b 143e
000000b0: 03cd 183d 8a89 0dbe a573 083d 75c8 53be
000000c0: ef49 b9bd 1250 213d 914a e6bd 0f9e 123d
000000d0: 6680 57bd c46f d6bd 1672 0abe b6f5 a43c
000000e0: ae90 a43d b57b bfbd cdb5 1bbe ee03 12be
000000f0: 391b 0b3d 80e2 f63c 5676 893d ea36 403d
0.13916911 -0.026934367 -0.124337345 0.00218037 0.12852083 -0.08042885 -0.1124345 0.06951498
-0.0415287 -0.19432011 0.10839543 0.15554106 0.07017745 0.11180203 -0.07802329 -0.05939103
0.09620135 -0.0039512683 0.014366912 -0.19683313 -0.15700309 0.037237577 0.02205508 -0.111545555
-0.15813391 0.20095426 0.048306055 -0.11134522 0.12046173 0.1643853 -0.11891385 -0.1362371
0.12602969 -0.006410665 -0.07553568 0.11146074 -0.011060894 0.075409085 -0.019923104 -0.10671942
-0.187636 0.013743569 -0.15163802 0.1446956 0.03730489 -0.13821998 0.033313412 -0.20681937
-0.09047305 0.039383 -0.11244691 0.035795268 -0.052612685 -0.10470536 -0.13520083 0.020136695
0.08035408 -0.09349767 -0.1520607 -0.14259312 0.03396151 0.0301373 0.06712024 0.04692737

model.2.weight f4 [64, 64]
00000000: 1109 07be 403e 033e 2182 853d d5b4 c7bd
00000010: 5f7f 943c 9250 c4bd 11ac f5bd b69d 373c
00000020: b6e1 03be 1ad7 863d cdf7 103e 0a58 72be
00000030: 3c1b efbc a0d5 653d 6f52 903c e9bc 2a3d
00000040: 7f48 ab3c 5d02 16be 18d6 31bb e1de a2bd
00000050: c2b2 cdbd 28b2 bcbc ec06 84ba 3591 e2bc
00000060: d795 d6be 987e 17be 4fb3 ac3d e534 413f
00000070: 04b5 c83d b6c5 00bf a155 013e 2410 53bd
00000080: a5e8 463d 09cd 0b3e e900 a73d ff30 4d3e
00000090: 9f39 6dbd fd8d 4d3e 26bf 4a3e 8844 283c
000000a0: 2989 dabd 61f5 993b cda9 903e 6149 9b3d
000000b0: ea16 263e e9b6 31bc f717 76be af88 48bc
000000c0: f32f 6abd e787 58bc 9a01 e7bc 4446 d93d
000000d0: 4c7a f4bd 35ff 9dbe 6ee2 483e fa10 22be
000000e0: c409 83bb 90a2 a6bb 1e21 99be 6f86 f1bd
000000f0: 264c ec3d 7293 47bc b47c 9dbe 2cba 56be
00000100: 595b 8b3c 422d f83d e9a8 53be d10e 8abd
00000110: 05a7 af3d 0d2d 863d 16a9 06be 94d5 b83c
00000120: 1a9f 21bb 34bb 01be 20ff 01bd 94db 403e
00000130: 2730 97be e8b7 c83d e40e 16be 0ba8 a2be
00000140: c710 9d3b 2036 683c 2fe4 bbbd c437 88be
00000150: 71f3 9b3c ee41 06be eb7e e23d 52a5 b4be
00000160: fb49 813d f6aa e53c 6e7b 2ebe eda9 a2be
00000170: f8c8 013e 069d 2e3e e96f 54bd 94c7 a2be
00000180: 0a97 9ebd a427 893c 1755 133e b7cb 5fbe
00000190: d62e 0b3d 9b9f 313e d44f a83e 1a05 f9bd
000001a0: 762a 84bd a2dc 533e 89f5 5b3d fdc2 c3bd
000001b0: d5a0 18bd a7b8 31bd 40a5 f8bd 717b eabd
000001c0: e7aa 44be 855b 03be 7bd6 32bd aa4f e13d
000001d0: da51 a5bd aab0 81be 5442 debc 54c6 e1bc
000001e0: c813 79bd d90c 5f3d 3664 dd3d f246 663d
000001f0: 20d6 0dbe 27db 863d c156 07bd 4edf 97bd
00000200: b15f e2bd 434a fcbc b0fa a33c 5136 25be
00000210: edb0 0b3d f6e5 a73d 63f0 f3bd 1a37 9ebd
00000220: d18d 3a3c 2579 f2bd efa0 05bd 35f0 fd3d
00000230: 43e7 3b3e ed8a 023e 15bb 39be efc3 8c3d
00000240: 2fd3 debd 2b2f c13d 086b b53d 7d78 8abd
00000250: 1652 84bd 28a9 983e 7d45 c23d 575a 8fbe
00000260: c62c 093e 4ff5 4a3d 7167 ac3d 977d c73b
00000270: 4049 dcbc 3cbf c23e ac61 99be 10b1 7c3d
00000280: 429d 18be a48d d1bd e282 6cbd 1506 e4bc
00000290: 5d86 84bb 13e2 563e e9a7 bc3e 1caa 4f3c
000002a0: 0d54 583e 6e63 263e a9ec 113d 2d38 61be
000002b0: 1ae7 18bd 92f4 003b 6221 2dbd 0364 6cbd
000002c0: 9875 8bbc 07ba 3fbe 8808 eebd 7424 5c3d
000002d0: 5cc5 d7bd 0616 ddbc eca3 08be 7019 05be
000002e0: 8fb3 a1bc e1cd 0dbe b31e 163e a9dd 7ebb
000002f0: 3d69 02be ddf5 d93d 5779 03be ee75 0e3e
00000300: 0060 423d be8a 44be b842 76bd 6004 d7bc
00000310: 8c57 8abc 62e6 46be b048 ecbc 6d8e 58bd
00000320: bfba 77be 1eff 9fbc 8ef6 88bd ba32 453e
00000330: 5d22 ae3b d49c 663e 8c5c 35be 7f55 1cbd
00000340: 040b de3d 591f 5fbc 8fd3 8cbd 7d5e 88bd
00000350: 3e45 31be 5470 113d 0337 183d f8c6 03be
00000360: 9cea b63d a46f b23d 1e02 6c3e 2f3c f5bd
00000370: 9f8d f3bd 76c2 8ebe 60d7 693d bd60 2b3b
00000380: a2ec 30be e51d 87bd 5841 593e df99 0fbc
00000390: 1de3 b1bd 1f49 8a3b f2b5 843d 465f 06bb
000003a0: d19e da3d f1f3 89bd 89cd 053d f12e f7bc
000003b0: 6cb3 4d3b 8766 02bb 9ef4 39bb 91e2 8abd
000003c0: 0b24 9f3c 9764 22be c104 26be 0bf4 883d
000003d0: 968d 913d cc00 f8bd 007c 5c3b 3cbd f53d
000003e0: 223b 21be d097 e6be 3180 cd3c 5760 1b3d
000003f0: d34b 40bd c26a 09be d4c8 213d fd0e de3d
-0.13187052 0.12816715 0.06518961 -0.09751288 0.018127142 -0.0958568 -0.1199571 0.011207035
-0.1287907 0.06583996 0.14157028 -0.23666397 -0.029187791 0.05611193 0.017617432 0.041684065
0.020908592 -0.14649339 -0.0027135666 -0.07952667 -0.10043861 -0.02303417 -0.0010072864 -0.02765713
-0.41911194 -0.14794385 0.08432638 0.75471336 0.09800151 -0.5030168 0.12630321 -0.051529065
0.04856171 0.13652433 0.081544705 0.20038222 -0.05791628 0.20073695 0.1979948 0.010270245
-0.106706925 0.004698441 0.28254548 0.07582355 0.16219679 -0.010846832 -0.2403258 -0.012239619
-0.057174634 -0.013215995 -0.028199006 0.10609105 -0.11937389 -0.3085877 0.19617626 -0.15826789
-0.003998967 -0.005085297 -0.2990808 -0.11793219 0.11537962 -0.01218115 -0.30759203 -0.20969456
0.017011331 0.12118007 -0.20669903 -0.06741107 0.08576778 0.065515615 -0.13150439 0.02256278
-0.0024661482 -0.12669069 -0.031737447 0.18833762 -0.29528925 0.09800702 -0.14654118 -0.31768832
0.00479326 0.014173061 -0.09174382 -0.26605046 0.01903698 -0.13111088 0.11059364 -0.3528238
0.06312939 0.028035622 -0.17039272 -0.31770268 0.1267432 0.17052087 -0.05186454 -0.3179289
-0.07743652 0.016742535 0.14387928 -0.21855055 0.033980213 0.17346041 0.32873404 -0.12159176
-0.06453411 0.20689633 0.053700957 -0.095586754 -0.037262756 -0.04338899 -0.12140894 -0.11449326
-0.19205819 -0.1282788 -0.043661576 0.11001523 -0.080722526 -0.25330096 -0.027131237 -0.02756039
-0.06080988 0.05445561 0.10810129 0.056220002 -0.13851213 0.06584769 -0.03304172 -0.07415639
-0.11053408 -0.03079713 0.020016998 -0.16134001 0.034104276 0.081981584 -0.119110845 -0.077253535
0.011386351 -0.11839513 -0.03262418 0.123993315 0.18349938 0.12748308 -0.18137772 0.06873309
-0.10880124 0.09432825 0.08858305 -0.067612626 -0.06460969 0.29816556 0.0948591 -0.2799861
0.13395986 0.04955035 0.084181674 0.0060879695 -0.026890397 0.38036525 -0.2995733 0.061692297
-0.14903739 -0.10232094 -0.057742007 -0.027834931 -0.0040443377 0.20984678 0.36846855 0.012674835
0.21125813 0.16248867 0.035626087 -0.21994086 -0.03732977 0.0019677025 -0.042268164 -0.057712566
-0.017023847 -0.18723308 -0.11622721 0.053745702 -0.1053569 -0.02698804 -0.13343781 -0.12997985
-0.01973894 -0.13848068 0.14660148 -0.0038889444 -0.12735458 0.10642598 -0.12839256 0.13912174
0.047454834 -0.19193551 -0.06012222 -0.026247203 -0.016887449 -0.19423822 -0.028843254 -0.052870203
-0.24192332 -0.019530829 -0.066876516 0.19257632 0.005314155 0.22520763 -0.17711085 -0.038167473
0.10841945 -0.013618314 -0.06876289 -0.06658647 -0.1731157 0.035507515 0.03716184 -0.1286887
0.08931467 0.087127 0.23047683 -0.1197437 -0.118922465 -0.27882737 0.057090163 0.002615019
-0.17277768 -0.06597499 0.21216333 -0.008764713 -0.086858965 0.0042201425 0.06480016 -0.0020503565
0.10674823 -0.06735981 0.032666717 -0.03017375 0.0031387461 -0.0019897537 -0.0028374563 -0.06781495
0.019426366 -0.15858684 -0.16212751 0.066871725 0.071070835 -0.12109527 0.0033643246 0.11998984
-0.15745214 -0.450377 0.02508554 0.037933674 -0.04694731 -0.13419631 0.039498165 0.108427025

model.2.bias f4 [64]
00000000: 27e8 6f3d 7fa7 7ebd 08e6 e83b 0554 aa3d
00000010: 2720 c93d 3f5a fdbd fb92 5cbc ef8d ba3d
00000020: 4919 683e e8d6 8d3e 61e3 a4bb 9858 693e
00000030: 13f4 763d 570f f7bc f177 95bd 0958 b13c
00000040: 765c 693d b5fa e8bd a0cc 7cbd 4f1a d8bb
00000050: 86d8 2b3e a9d7 a03e b34b 03be d7bf d1bd
00000060: f3ef 1fbe c912 0ebe 726a 193e 0bee 03be
00000070: 8917 68bd c7a2 453d fbf4 b63d e808 eebd
00000080: b2e1 edbc 587c 863d b732 acbc e719 e0bd
00000090: a28c fbbd f720 a1bd 9bea 593e 9a69 ddbd
000000a0: ca60 1cbd 35a4 a73e 9dee 033e 919a 87bd
000000b0: 1bce 16bc 93f2 e7bd 16e0 173e 5334 cdbd
000000c0: cc8a e33c 75b5 f5bd d45e f6bd f7b3 8f3e
000000d0: 0901 13be 349a 493c 6f3d 033d 07df 13bd
000000e0: 16aa 12be e61e 74bd 8407 303d bc8e c03b
000000f0: 02dd 8e3d 779a 123e 19ef 0b3e 150a 0cbe
0.058571007 -0.062171455 0.0071075 0.08316807 0.09820586 -0.12370729 -0.013462777 0.09109103
0.22665896 0.27703023 -0.0050319885 0.22787702 0.06029136 -0.030158682 -0.07298268 0.021648424
0.056972943 -0.113759436 -0.061718583 -0.006594933 0.16781816 0.31414536 -0.12821846 -0.10241669
-0.15618877 -0.13874353 0.14982012 -0.12883775 -0.05666307 0.04825094 0.08933445 -0.116227925
-0.029038284 0.065666854 -0.021020276 -0.109424405 -0.12282683 -0.07867616 0.21280901 -0.108111575
-0.038178243 0.32742468 0.12883992 -0.06621278 -0.009204413 -0.11325564 0.14831576 -0.10019746
0.027776144 -0.11997501 -0.12029806 0.2806699 -0.14355864 0.012304831 0.03204101 -0.036101367
-0.14322695 -0.05959978 0.042975917 0.0058763903 0.06975748 0.14316736 0.13665427 -0.13675721

model.4.weight f4 [4, 64]
00000000: 3031 2e3e ed82 143e c7ea 173e 1253 3abe
00000010: a99b 5b3e 4266 88bb d6af 1d3f b1ce 213c
00000020: 4690 003e 7b99 843d cbe6 69bd 4d11 e73d
00000030: 2fca 4e3e b389 e9be be64 033a e35a b5bc
00000040: 35a9 d53b cff4 81be d7b7 e53b 0bfa 3e3e
00000050: 0ca4 913d de12 123e c84d aebd 2c29 d0be
00000060: 43d8 50be 6d34 b0bd a7b0 f1bd df1a d83d
00000070: 0e53 033e df08 8a3d f39d d8bd 3e2f bd3d
00000080: b994 343e ac38 2c3e d8d6 4c3c abb0 71bd
00000090: 18df a4bc 486f 45bd 77a4 c83d 575e 7e3d
000000a0: e2f0 843d a4c7 ca3d db6e 053e 1424 2c3d
000000b0: 73aa f8bc 3a37 12bd a10d 0c3e 2efc 933e
000000c0: 32fe 133c c4ab 793e 0b00 cebe bfd0 4e3e
000000d0: 31e7 413e ec72 363e 1d51 a93d 48ff fe3c
000000e0: 925e 60be e41c a0bd addd 083e e5ba ab3c
000000f0: b580 5fbe 5dfb 163e 669c 0f3f 48a3 863d
00000100: 4bad bc3e 5433 043d 19b8 9d3e d8b0 e1bd
00000110: 442e 8f3e 8119 083f ca43 813e b8cd 9cbd
00000120: 9cbc 08bd 41c2 d23d 221e 883d c898 8e3e
00000130: b26b 773a 378c 8c3d c4dd 83bd 02a9 cc3d
00000140: a07b 08be f276 0cbe 5d57 8fbe 1ed7 e53d
00000150: 64ae c73d e67b 593e 6af5 89bc d817 1b3e
00000160: 1398 163e c4a6 91be 8380 063d 2275 9dbe
00000170: e18c 80bb 903f a23e 5227 dbbd 8994 8f3d
00000180: c946 ad3e bb63 9d3d d8cd 913e 2cee 01be
00000190: f3a5 b3bd e681 04be 1601 373e d4a1 9f3e
000001a0: c44e 103e 97e1 2d3e 75de 893d c3d0 d13d
000001b0: 2a2a a2bd 0e6e 8d3c 6df3 0a3e 935d 833d
000001c0: d380 993d 3c92 07bc 6fb0 3ebd 2476 d63d
000001d0: 50b5 423e 4e45 d03d d24b 9a3e 6ceb 303d
000001e0: 52cf 75bc b36f b1bd 5f66 763d 8ac5 13be
000001f0: b5bd 6dbe 91db f33d 5182 a13e 7c13 6abd
00000200: 291b 4dbe 3fbf 4fbc 3028 723e cb94 96be
00000210: eca5 9c3e 8166 ea3d 2efa e53e 7c9a d93d
00000220: 7336 c83d a38c cc3d 491d 8dbd ab59 843e
00000230: 9e8a b73e f45a 5abe 4e71 f6bd e90f 423e
00000240: 237d 84bd 0984 7cbe 3b56 99be dff4 4b3d
00000250: 2477 f93c 44cc 383e 9c3e 853d d787 34be
00000260: 6482 16be bdc6 bdbd 5657 a1bc 81c9 493e
00000270: f6f0 813e c951 c63e d5f6 623e 98d6 25be
00000280: 85ef 673d d358 763d 4678 5f3e cedd 353e
00000290: ada9 cd3d 4f2b b3be e797 ef3d 090c 08bd
000002a0: 9f4f 453e 71ac 0d3e 8936 fa3d 05ac e53c
000002b0: 66ec 4a3e f614 403c 8dd0 073e 36da e43c
000002c0: 378c b33e 996b e63d b40c 38be 9598 543e
000002d0: 16ae 46bd a0d5 e63e 309b 053e 9833 e83d
000002e0: b7b0 9fbe 7444 1a3e 7f02 86bd ed9b 073e
000002f0: 5986 43be 13f1 d93d f14c 993d f171 8cbe
00000300: 276d a63e 7c6b 583e 643e 1e3e ff1e fcbd
00000310: 911a 4c3e 8284 8d3e 0c48 033e 3506 c03c
00000320: 05b2 e13d 4e7c 123e b8fb 3b3e caa6 693e
00000330: 6ac4 323e d719 86bc c7fd e73e 9c85 05be
00000340: bcaa 4b3e bd56 21be 861d a3bd 87ee d7bb
00000350: 68d0 e43c 71b5 493e 684c 78be 16c2 6e3e
00000360: 56f3 90bd f8a0 84bd ffc0 3c3e e86c 2cbe
00000370: b1d3 aa3e c8a7 d2bd 0085 9fbe 116b 533d
00000380: 627d c53c ece2 b43e 3185 0ebe dbc6 873d
00000390: 828b b6be 01af c33c 90c6 303e 15e9 293e
000003a0: c381 e43c 203e f63d b641 2d3e 72b7 89be
000003b0: 8d2d b93e c502 f8be ff04 ff3d 3237 ca3e
000003c0: f6e8 893e 4005 cbbd 7fb6 c0bd a09c fc3d
000003d0: 7f96 1bbe 68e3 3cbd 17e1 5b3e 788d 153e
000003e0: 7866 2fbe c2e2 1ebe e7f3 9dbb a308 6bbd
000003f0: 5cd5 7abe b9f6 4a3e 7a54 803e 7779 743c
0.17010951 0.14503069 0.14835654 -0.18195751 0.21446098 -0.0041625807 0.6159643 0.009875939
0.12555036 0.064745866 -0.057104867 0.11282597 0.20194314 -0.4561287 0.0005012265 -0.022138065
0.006520415 -0.25382087 0.007010441 0.18650071 0.071113676 0.1426501 -0.08510929 -0.40656412
-0.20394997 -0.086037494 -0.11801272 0.10552 0.12824652 0.06739973 -0.105770014 0.09237526
0.17634858 0.16818494 0.012502395 -0.059006374 -0.02012591 -0.04820183 0.09796994 0.06210169
0.06491257 0.0990136 0.1303057 0.042026594 -0.030354714 -0.0356972 0.13677074 0.28903335
0.009032773 0.2438193 -0.40234408 0.20196818 0.18935849 0.17817277 0.08267424 0.031127587
-0.21911076 -0.078180104 0.13365813 0.020963142 -0.21826442 0.14744325 0.5609802 0.06574112
0.36850962 0.032275513 0.30804518 -0.110200584 0.27964985 0.53163916 0.2524703 -0.07656425
-0.033382997 0.10290957 0.066463724 0.27850938 0.000943835 0.06862681 -0.06438783 0.09993173
-0.13328409 -0.13717249 -0.2799634 0.11222671 0.09750059 0.2123867 -0.016840655 0.15145814
0.14706449 -0.28447545 0.032837402 -0.30753428 -0.003923044 0.3168912 -0.10700859 0.07010753
0.33843067 0.07685038 0.2847736 -0.12688512 -0.08771887 -0.12940177 0.17871508 0.31178153
0.14092547 0.16980587 0.067318834 0.10244896 -0.079181984 0.017264392 0.13569422 0.06414332
0.074952744 -0.008274611 -0.04655498 0.10471752 0.19014478 0.10169469 0.3013597 0.043193266
-0.015003042 -0.08663883 0.060156222 -0.14430824 -0.23216899 0.11907113 0.31544736 -0.057147488
-0.20029892 -0.012679874 0.23648143 -0.29410395 0.30595338 0.11445332 0.44917434 0.10625169
0.0977601 0.09987762 -0.06890351 0.2584966 0.35847944 -0.21323758 -0.1203333 0.18951382
-0.064691804 -0.24659742 -0.299486 0.049794074 0.030452318 0.18046671 0.065060824 -0.17629944
-0.14698178 -0.09266422 -0.019694965 0.19705774 0.2537915 0.38734272 0.22164471 -0.16195142
0.056624908 0.060143303 0.21823224 0.17760393 0.10042129 -0.3499398 0.11698895 -0.033214603
0.19268654 0.13835312 0.12217433 0.028036127 0.19816741 0.0117237475 0.1326315 0.027936082
0.35067913 0.112509914 -0.17973596 0.2076133 -0.048505865 0.45084858 0.1304748 0.11337966
-0.3118951 0.15065175 -0.06543445 0.13243075 -0.19094218 0.106416844 0.074853785 -0.2743068
0.32505152 0.21134752 0.15453488 -0.123105995 0.1993201 0.27640158 0.12820452 0.02344046
0.11020283 0.14305231 0.18357742 0.22817531 0.17457739 -0.016369743 0.45310804 -0.13039249
0.19889349 -0.15755744 -0.079646155 -0.006589714 0.027931407 0.1969812 -0.24247897 0.23316225
-0.07077663 -0.06476015 0.18432997 -0.1683842 0.33364633 -0.10285908 -0.31156158 0.05161578
0.024107639 0.35329378 -0.13917996 0.066297255 -0.3565331 0.02388716 0.17263246 0.1659282
0.027893906 0.12023568 0.16919598 -0.2689777 0.36167565 -0.48439613 0.12452125 0.39495236
0.26935548 -0.09913111 -0.09409808 0.12334561 -0.15194128 -0.04611531 0.21472584 0.14604747
-0.17128932 -0.15516189 -0.004820335 -0.057381283 -0.24495453 0.1982068 0.2506445 0.014921538

model.4.bias f4 [4]
00000000: eb45 613e 6a3f 123e 383c f33d ea8e 623d
0.21999328 0.14282003 0.1187672 0.055312075
