p1_navigation/checkpoint.pth (torch_old, 28517 bytes, 6 tensors)

model.0.weight f4 [64, 37]
0	0x3d6ef801	0.058341984
1	0x3da1b014	0.07894912
2	0xbda4a01b	-0.0803835
3	0x3d2085cb	0.039190095
4	0x3e0cb78e	0.13741896
5	0x3e2cde6d	0.16881724
6	0x3dc123bf	0.09430646
7	0x3e290663	0.16506343
8	0xbdf85d66	-0.12127189
9	0xbd81b599	-0.06333465
10	0xbd26ddc1	-0.040738825
11	0xbe705c20	-0.23472643
12	0x3cb66025	0.022262642
13	0x3e2ca0c8	0.16858208
14	0xbd3297b6	-0.043601714
15	0x3d2dce4c	0.04243307
16	0x3de3ff71	0.11132706
17	0x3c8b5f5a	0.01701324
18	0x3deb6dd7	0.1149556
19	0x3e8ce2b2	0.27516705
20	0x3e909208	0.28236413
21	0xbd139256	-0.03602823
22	0x3e0da8f0	0.13833976
23	0x3aef9945	0.0018279931
24	0x3c9a4a8f	0.01883438
25	0x3e272c05	0.16325386
26	0x3e454baa	0.19267145
27	0xbcf7ffba	-0.030273307
28	0xbe5a42d1	-0.21314551
29	0xbe3d1503	-0.18465047
30	0x3e104988	0.1409055
31	0x3d4a405a	0.049377777
32	0xbd0b9a78	-0.03408286
33	0xbe071972	-0.131933
34	0xbe3c543e	-0.18391511
35	0xbe09585f	-0.13412617
36	0xbd683ace	-0.056696706
37	0x3e3a3d57	0.18187462
38	0x3b4edf5b	0.0031566236
39	0x3c79b414	0.015240688
40	0x3e072774	0.13198644
41	0xbe167038	-0.14691246
42	0x3e3df0fa	0.18548957
43	0xbe6cac83	-0.23112683
44	0xbe901db6	-0.28147668
45	0xbf1354f4	-0.57551503
46	0xbf2cc901	-0.6749421
47	0x3e184328	0.14869368
48	0x3d611805	0.054954547
49	0xbda6cdd7	-0.081447296
50	0xbba57120	-0.005048886
51	0x3d622e94	0.0552202
52	0xbd2bc4aa	-0.0419356
53	0x3d70b7ba	0.058768965
54	0x3e1867e7	0.14883386
55	0x3d523b3a	0.051326014
56	0x3e39efa3	0.1815782
57	0xbddae1d7	-0.10687607
58	0xbe032085	-0.12805374
59	0xbc5b5ac8	-0.013388343
60	0xbd834fad	-0.06411681
61	0x3da5dc60	0.08098674
62	0xbd345820	-0.044029355
63	0xbd0d7938	-0.03453943
64	0x3dc36b00	0.09541893
65	0x3d953fcf	0.07287561
66	0x3dc977b1	0.098372824
67	0xbde79b72	-0.11308946
68	0x3e77526d	0.24152537
69	0x3e443f7e	0.19164845
70	0x3de5533e	0.11197518
71	0x3d62daf2	0.055384584
72	0xbda02b0c	-0.078207105
73	0x3d0413ec	0.03224556
74	0x3e16e52a	0.14735857
75	0x3e35fb65	0.1777168
76	0x3d4c71cb	0.04991321
77	0xbec99e00	-0.39378357
78	0xbe74f6b7	-0.23922239
79	0xbedaa6da	-0.42705423
80	0xbdfdf55b	-0.124003135
81	0x3eb34b48	0.35018373
82	0xbe545281	-0.20734598
83	0xbe5da15a	-0.21643582
84	0x3d8b6eef	0.06808268
85	0xbf35535d	-0.7083033
86	0x3e2453e2	0.16047624
87	0xbeb41b78	-0.35177207
88	0xbe0afc63	-0.1357284
89	0xbd536ae3	-0.051615607
90	0xba8dd7be	-0.0010821742
91	0x3e69d195	0.22833855
92	0xbe487971	-0.19577576
93	0xbe77af53	-0.24187975
94	0xbe23b76d	-0.1598794
95	0x3dc10cc9	0.09426267
96	0x3e0502de	0.12989375
97	0xbec46beb	-0.38363585
98	0xbdcd9937	-0.10038989
99	0xbe99f525	-0.30069843
100	0x3ed2ed3d	0.41196623
101	0x3cf7413a	0.03018247
102	0xbef61270	-0.48060942
103	0xbd509f7f	-0.050933357
104	0xbebdc5bd	-0.37064925
105	0xbdc049be	-0.09389065
106	0x3d2cc967	0.04218426
107	0xbe116b4e	-0.1420109
108	0xbef0db27	-0.470422
109	0x3d1ab65f	0.03777158
110	0xbd281578	-0.0410361
111	0x3dceaa5f	0.100910895
112	0x3de0b35c	0.1097171
113	0x3e19e768	0.1502968
114	0x3dd4fa17	0.10399263
115	0xbdee5cb7	-0.11638778
116	0xbd25790b	-0.04039864
117	0x3ded0fa0	0.11575246
118	0x3da16886	0.078812644
119	0x3e301102	0.17193988
120	0x3ebeee36	0.37291116
121	0x3ceebead	0.029143656
122	0xbdcb9c18	-0.09941882
123	0x3e0cf8ea	0.13766828
124	0x3dae948e	0.08524428
125	0xbcf02d88	-0.029318586
126	0x3d2d4a5b	0.04230724
127	0xbc9eb8c8	-0.01937522
128	0xbd2f7644	-0.042837396
129	0xbddef626	-0.10886793
130	0xbe4095cf	-0.18807147
131	0x3cbb322c	0.022851072
132	0x3d4da8bf	0.050209757
133	0x3e27d0f2	0.163883
134	0x3e2cc90b	0.16873567
135	0x3d9ac974	0.075579554
136	0x3e34122e	0.1758506
137	0x3b95f793	0.0045766323
138	0x3d64b7a4	0.055839196
139	0xbd911fb9	-0.07086129
140	0xbd1748b2	-0.036934562
141	0x3e867bf7	0.26266453
142	0x3e452401	0.19252016
143	0xbdc0390e	-0.09385882
144	0xbe9cf0ae	-0.30652374
145	0xbf329783	-0.6976244
146	0x3d78352b	0.06059758
147	0xbc01d820	-0.007925063
148	0xbe3a27d2	-0.18179253
149	0xbe130556	-0.14357504
150	0xbde7ad30	-0.1131233
151	0xbe3b0046	-0.18261823
152	0x3c6544ae	0.013993425
153	0x3de6a511	0.11261953
154	0x3d297c79	0.041378472
155	0xbd0dbfbb	-0.034606677
156	0xbe26dabb	-0.16294377
157	0xbe66f9e7	-0.22556268
158	0xbe0f62a5	-0.14002474
159	0x3d153548	0.036427766
160	0xbd7a0511	-0.061039988
161	0xbdab8d57	-0.08376568
162	0x3cf4beef	0.0298762
163	0xbdae4847	-0.085098796
164	0xbd997b67	-0.0749424
165	0xbe0b6865	-0.13614042
166	0xbe03b4b5	-0.12861903
167	0x3d6e04eb	0.05811016
168	0xbe0fd8e8	-0.14047587
169	0xbe04bfd5	-0.12963803
170	0xbd33edb9	-0.043927882
171	0x3db28d29	0.087183304
172	0x3ec05ebb	0.37572274
173	0x3d956191	0.07294
174	0xbe04f66a	-0.12984625
175	0xbd1badc4	-0.038007513
176	0xbc9cd0db	-0.019142559
177	0x3d710b16	0.058848463
178	0x3e276b1b	0.16349451
179	0xbec66159	-0.38746145
180	0xbe277ee6	-0.16357002
181	0x3ea5e7d0	0.3240342
182	0x3f9a55bc	1.2057414
183	0x3ba19c59	0.004931968
184	0x3c689e58	0.014197908
185	0x3d964d20	0.07338929
186	0xbe63ac52	-0.22233704
187	0xbd0b5fe9	-0.034027014
188	0xbeb3f5bf	-0.35148427
189	0xbd175984	-0.036950603
190	0x3da3f98e	0.08006583
191	0x3dae95f3	0.08524694
192	0xbe20a32f	-0.1568725
193	0xbe89f00f	-0.26940963
194	0xbf3a1218	-0.7268386
195	0xbd600b9a	-0.054698564
196	0xbded490c	-0.11586198
197	0xbdce9d91	-0.10088647
198	0xbecd0b36	-0.40047616
199	0xbe1f05db	-0.15529577
200	0xbdc9fc82	-0.09862615
201	0xbaf06d62	-0.0018343145
202	0xbe1fce69	-0.15606083
203	0xbd6f4349	-0.058413778
204	0xbdb0cb87	-0.0863257
205	0x3d8616f4	0.06547347
206	0xbcc653a9	-0.024209814
207	0xbd421591	-0.04738385
208	0xbd1b40a8	-0.037903458
209	0x3d3fe7a1	0.046851758
210	0xbd460274	-0.048342183
211	0xbdc90fc1	-0.09817458
212	0xbddb9ad6	-0.10722892
213	0xbcbecd4d	-0.023291254
214	0x3e178fb2	0.14800909
215	0xbda3ca88	-0.07997614
216	0xbe44088a	-0.19143882
217	0xbd5acb37	-0.053416457
218	0xbd150558	-0.03638205
219	0xbdd00104	-0.10156444
220	0x3d370fb7	0.04469272
221	0x3dd85837	0.10563701
222	0xbe13e604	-0.14443213
223	0x3e3f2d10	0.18669534
224	0xbe378ef9	-0.17925633
225	0xbde09e45	-0.109676875
226	0xbed970f5	-0.42468992
227	0xbed2a562	-0.41141802
228	0xbd986161	-0.074404486
229	0x3d6253a9	0.055255566
230	0x3c70ae7d	0.014690039
231	0x3e955ce8	0.29172444
232	0xbe9ee969	-0.31037453
233	0x3e8d6ac2	0.27620512
234	0x3e51c7f5	0.20486434
235	0x3c8195d5	0.015818516
236	0x3cf17006	0.029472362
237	0xbf110a5f	-0.5665645
238	0x3dceba04	0.100940734
239	0x3d9d56a2	0.076825395
240	0xbd26d393	-0.040729117
241	0xbdfbad7e	-0.122889504
242	0x3cac8a34	0.021061994
243	0xbdfe48c1	-0.124162205
244	0x3e12271c	0.14272732
245	0x3e24085a	0.16018811
246	0xbd497741	-0.049185995
247	0xbe360265	-0.17774351
248	0x3dc3ba88	0.095570624
249	0xbe1cb9d9	-0.1530527
250	0xbea94885	-0.3306314
251	0xbdc878b6	-0.09788649
252	0x3d4b53ec	0.04964058
253	0xbdbc41f3	-0.09192266
254	0xbdc8d1c1	-0.098056324
255	0x3dc7563b	0.09733244

model.0.bias f4 [64]
0	0x3e4af9b3	0.19821815
1	0xbc9e5cc9	-0.019331353
2	0xbdecb10a	-0.11557205
3	0x3d192e2d	0.037397552
4	0x3dc05a62	0.09392239
5	0xbe282724	-0.16421181
6	0xbddc062e	-0.10743366
7	0x3b9dfbd3	0.0048212796
8	0xbc9e3761	-0.019313516
9	0xbe45d215	-0.19318421
10	0x3e016ea9	0.1263987
11	0x3e2c3fe0	0.16821241
12	0x3d1f7f5a	0.03893981
13	0x3dccea1e	0.10005592
14	0xbdc1b424	-0.09458187
15	0xbcc6885b	-0.024234941
16	0x3dcdac7c	0.100426644
17	0xbc9af186	-0.018913995
18	0xbdabec93	-0.08394732
19	0xbe73bb1b	-0.23801844
20	0xbe453ffe	-0.19262692
21	0x3d2e4d37	0.042554107
22	0x3c659836	0.014013341
23	0xbe3877de	-0.18014476
24	0xbe0f9faf	-0.14025758
25	0x3e7d2736	0.24721989
26	0x3cad59ff	0.021161078
27	0xbdd1ccb9	-0.10244126
28	0x3e171a4e	0.14756128
29	0x3e4cd149	0.20001711
30	0xbdc63e9b	-0.0967991
31	0xbdee6fb3	-0.11642399
32	0x3dd24611	0.1026727
33	0x3b245d1f	0.0025079919
34	0xbdeae832	-0.11470069
35	0x3d0c5623	0.034261834
36	0x3b9831e0	0.0046446174
37	0x3dcd325d	0.10019372
38	0xbe2a16b4	-0.16610223
39	0xbdacccc7	-0.08437496
40	0xbd908b30	-0.07057798
41	0xbc37e5ba	-0.011224205
42	0xbe1b9302	-0.15192798
43	0x3e0b4e34	0.13604051
44	0xba5eae74	-0.00084946235
45	0xbe30e292	-0.1727393
46	0x3cb89720	0.022533
47	0xbe4c5b00	-0.19956589
48	0xbe2415df	-0.16023968
49	0x3d06d352	0.032916375
50	0xbde2e8f0	-0.110795856
51	0xbc486541	-0.012231172
52	0xbd710ed5	-0.058852036
53	0xbd9ef90c	-0.07762346
54	0xbe3db83b	-0.1852731
55	0x3c25aed6	0.010112485
56	0x3dbc0e35	0.09182397
57	0xbe3dc58a	-0.18532386
58	0xbe520967	-0.20511399
59	0xbe138953	-0.14407854
60	0x3ccf382f	0.025295345
61	0x3ba33164	0.004980253
62	0x3d3f9f40	0.046782732
63	0x3d0fc478	0.035099477

model.2.weight f4 [64, 64]
0	0xbcc9e194	-0.024643697
1	0xbc725ed9	-0.014793121
2	0x3e0416ff	0.12899397
3	0xbcd26206	-0.025681507
4	0x3d94ee2c	0.0727199
5	0xbcc00216	-0.023438495
6	0xbe8989be	-0.268629
7	0xbd51fd80	-0.051267147
8	0x3c44c251	0.012009219
9	0xbdb87d4a	-0.09008272
10	0xbe17154c	-0.14754218
11	0xbd3bd972	-0.04586167
12	0xbd8d57f1	-0.06901539
13	0xbb9f5a5e	-0.0048630675
14	0x3d4a0f3f	0.049330946
15	0x3cf1897f	0.029484509
16	0xbc9b1b1a	-0.018933821
17	0x3e4239e1	0.18967392
18	0x3cb6630c	0.022264026
19	0x3cf55b3f	0.029950736
20	0xbe28262f	-0.16420816
21	0xbdd1521b	-0.102207385
22	0xbe36706b	-0.17816322
23	0xbd84e40e	-0.064888105
24	0xbecb9723	-0.39763746
25	0xbdf4d0aa	-0.11953862
26	0x3dcde04e	0.10052548
27	0x3f1bc0a2	0.6084081
28	0x3dfab65c	0.122418135
29	0xbe92e8d2	-0.28693253
30	0x3aa2369f	0.0012375897
31	0x3e34de51	0.17662932
32	0x3ddb8249	0.10718209
33	0x3e76bb17	0.24094807
34	0xbbd8de00	-0.0066182613
35	0x3e022b40	0.12711811
36	0xbd3c3581	-0.045949463
37	0xbc273b15	-0.010206957
38	0x3da5ab0c	0.08089265
39	0xbc08314a	-0.008312533
40	0xbd71e096	-0.059052072
41	0xbe8bf491	-0.27335027
42	0xbd65335e	-0.05595719
43	0x3d3a9f95	0.045562346
44	0x3d0f892a	0.03504292
45	0xbd950330	-0.072759986
46	0xbdf90b19	-0.1216032
47	0xbd267b7c	-0.040645108
48	0x3da99a00	0.08281326
49	0x3db0b58b	0.086283766
50	0xbe196a93	-0.14982061
51	0x3dbaf6d7	0.09129112
52	0xbd850763	-0.064955495
53	0xbf94b284	-1.1616979
54	0x3e241230	0.16022563
55	0xbe37e5a8	-0.179587
56	0x3f140ae0	0.57829094
57	0x3ca17c51	0.019712599
58	0xbe25ec84	-0.16203505
59	0x3d8bd639	0.06827969
60	0xbdcd118c	-0.100131124
61	0x3d1e2bb9	0.038615916
62	0xbe38b084	-0.18036085
63	0xbef5ef8e	-0.48034328
64	0x3ddf3a69	0.10899813
65	0x3d5dcecb	0.05415229
66	0xbe3dabc1	-0.1852255
67	0xbc0018d3	-0.007818419
68	0x3d017650	0.031606972
69	0x3d2e98b3	0.042626094
70	0xbec42b47	-0.38314268
71	0xbd6bf040	-0.057602167
72	0xbd80f56f	-0.06296813
73	0x3d5cb887	0.053886916
74	0xbd8fda22	-0.070240274
75	0x3e3f5af5	0.18687041
76	0xbd95897d	-0.073016144
77	0x3de4b70d	0.11167727
78	0xbe0c7dc3	-0.1371985
79	0xbebe71ac	-0.371961
80	0xbd71c016	-0.059021078
81	0x3b72333f	0.0036956815
82	0x3c33ca76	0.010973563
83	0xbd93ad73	-0.07210817
84	0xbd971d95	-0.07378689
85	0xbe4caf35	-0.19988711
86	0x3dd21b3a	0.10259099
87	0x3e2abf9c	0.16674656
88	0x3dbcc290	0.09216797
89	0x3cce8a2d	0.025212372
90	0xbe39adf1	-0.1813276
91	0xbe8a9682	-0.27067953
92	0x3d19b311	0.037524287
93	0x3e3ca7d0	0.1842339
94	0x3e5d28b2	0.21597555
95	0xbe194baf	-0.14970277
96	0xbdc7b8f5	-0.09752075
97	0xbbc0816e	-0.005874804
98	0x3e6307e6	0.22170982
99	0xbd31c3bb	-0.043399554
100	0xbd2cc7cb	-0.042182725
101	0x3e220754	0.15823108
102	0x3ec07fdb	0.37597546
103	0xbe60b80c	-0.21945208
104	0xbdb1ff55	-0.08691279
105	0x3e23f58c	0.16011637
106	0x3d978b73	0.07399645
107	0x3d283267	0.041063692
108	0xbd6ad605	-0.05733301
109	0xbe8b2a34	-0.27180636
110	0xbdf8d4df	-0.12149977
111	0x3d3c41a0	0.045961022
112	0xbe754155	-0.23950703
113	0xbe8ab7a4	-0.27093232
114	0xbd592276	-0.05301138
115	0x3c8813e1	0.016611042
116	0xbdf70d27	-0.120630555
117	0xbec327de	-0.38116354
118	0x3d2b621b	0.041841608
119	0xbd09e88d	-0.033669043
120	0xbc96854c	-0.018374108
121	0xbcd81358	-0.026376411
122	0x3d653438	0.055958003
123	0x3df66675	0.12031261
124	0xbe2bac75	-0.16765006
125	0x3ba9386e	0.0051641976
126	0x3e288997	0.16458736
127	0xbcc78f15	-0.024360219
128	0xbe1dea2f	-0.15421365
129	0xbde07c56	-0.10961215
130	0xbdc54d48	-0.09633881
131	0xbe1902b2	-0.14942434
132	0x3d9c0e7f	0.076199524
133	0x3cc1cb0e	0.023656394
134	0x3d735a31	0.059412185
135	0xbe75d653	-0.2400754
136	0xbd0236d2	-0.031790562
137	0xbe6a4b8a	-0.22880378
138	0xbd907d7e	-0.07055186
139	0x3e043166	0.12909469
140	0xbdcd5b51	-0.10027183
141	0xbcb123a4	-0.02162344
142	0xbe397020	-0.18109179
143	0x3da68638	0.08131069
144	0xbe01917f	-0.12653159
145	0xbc770c43	-0.015078607
146	0x3df7b8c3	0.120957874
147	0xbc6cca84	-0.01445258
148	0xbe110947	-0.14163695
149	0x3d891a2f	0.06694447
150	0x3db144c1	0.08655692
151	0xbce334b9	-0.027735101
152	0x3d496da0	0.049176812
153	0x3d862bbf	0.06551313
154	0x3da96b78	0.08272451
155	0xbe1c77e7	-0.15280114
156	0xbe14bd8f	-0.14525436
157	0x3ec2c622	0.38041788
158	0xbe42946f	-0.19001935
159	0xbbded15d	-0.0067998604
160	0xbdbec5d1	-0.09315074
161	0xbe705e8c	-0.23473567
162	0xbe31ee52	-0.17376068
163	0xbd7f5f10	-0.062346518
164	0x3d17fad4	0.037104443
165	0x3e617277	0.22016321
166	0x3e228339	0.1587037
167	0xbe1545fa	-0.14577475
168	0x3e4a3cad	0.19749708
169	0x3e33cc35	0.17558368
170	0x3c53b11f	0.012920647
171	0xbe128c34	-0.14311296
172	0xbdb8a46d	-0.09015737
173	0x3dab7cc6	0.08373408
174	0xba263334	-0.00063400273
175	0x3d17008c	0.036865756
176	0x3e18ecf2	0.14934137
177	0xbdba393a	-0.09092946
178	0xbda83a1f	-0.08214211
179	0x3d019b60	0.031642318
180	0xbde5b65c	-0.11216423
181	0xbdf591ca	-0.11990698
182	0xbea82882	-0.32843405
183	0xbd81d914	-0.063402325
184	0xbde06cae	-0.10958229
185	0xbd8229c9	-0.06355626
186	0x3de5ab7f	0.11214351
187	0xbe56d4f2	-0.2097967
188	0xbdec11e9	-0.115268536
189	0x3e09e6fe	0.13467023
190	0xbe80e72c	-0.2517637
191	0x3e2693fe	0.16267392
192	0xbe3bf17c	-0.18353838
193	0xbf3a0648	-0.72665834
194	0xbba92b83	-0.0051626577
195	0xbd2488a3	-0.04016937
196	0xbcc25422	-0.023721758
197	0x3cdd619e	0.027024087
198	0xbe9f23ff	-0.3108215
199	0xbe9f8694	-0.31157362
200	0xbf263374	-0.6492226
201	0xbef5511b	-0.4791344
202	0x3d98c3d5	0.07459227
203	0x3e5abe61	0.21361686
204	0x3dcd4566	0.10023002
205	0x3e8e2109	0.2775958
206	0xbd4025cc	-0.046911046
207	0xbdba19fd	-0.09086988
208	0xbeb46e6f	-0.35240504
209	0xbe82cd37	-0.25547192
210	0xbe0b00f0	-0.13574576
211	0xbe81e0f1	-0.2536693
212	0x3c03e3bc	0.008049902
213	0xbee79f79	-0.45238855
214	0xbded454d	-0.11585484
215	0xbe15a85f	-0.1461501
216	0x3d3d5d88	0.046231776
217	0xbc8754d0	-0.016519934
218	0x3ba61194	0.0050680134
219	0xbd8b0ee8	-0.067899525
220	0xbbd0753a	-0.0063616307
221	0xbdb499d0	-0.088184
222	0x3e74a0d0	0.2388947
223	0xbd8391d0	-0.06424296
224	0x3dad20ee	0.084535465
225	0xbe9338fc	-0.28754413
226	0xbe34411d	-0.17602964
227	0x3dcd8115	0.10034386
228	0xbea0c384	-0.31399167
229	0x3d33fc2c	0.04394166
230	0x3d71f9be	0.059076063
231	0x3db9561a	0.09049626
232	0xbea2f9da	-0.31831247
233	0x3c16d5bc	0.009206232
234	0xbe87f51f	-0.265542
235	0xbeca97ae	-0.39568847
236	0xbe9da809	-0.30792263
237	0x3e281f89	0.1641828
238	0x3d85ff3a	0.06542821
239	0x3c069d19	0.008216166
240	0xbf3272e8	-0.69706583
241	0xbf23d56c	-0.6399753
242	0xbe8d3ba6	-0.2758457
243	0xbe026e05	-0.12737282
244	0xbca3ae67	-0.019980622
245	0x3d832af0	0.06404674
246	0x3de9896e	0.11403166
247	0xbe855a36	-0.26045388
248	0xbe16b4ac	-0.14717358
249	0xbf18722c	-0.5954921
250	0xbe77be93	-0.24193792
251	0x3dbb22f9	0.0913753
252	0x3d158476	0.036503278
253	0x3e188d4e	0.14897653
254	0xbea022bb	-0.31276497
255	0xbefc7e22	-0.49314982

model.2.bias f4 [64]
0	0x3e142e26	0.14470729
1	0x3d52017f	0.051270958
2	0x3e1f4d20	0.15556765
3	0x3dabee6e	0.08395086
4	0x3dc61197	0.09671324
5	0xbd81c37e	-0.06336115
6	0x3dd49193	0.103793286
7	0xbbd25c21	-0.006419674
8	0x3eec732c	0.4618162
9	0x3f0c1d74	0.5473244
10	0x3d40b0a9	0.047043476
11	0x3ef79097	0.483525
12	0x3df30c8a	0.11867626
13	0xbbfadd34	-0.007655764
14	0xbd89272f	-0.06696927
15	0x3d7f9d01	0.06240559
16	0x3d44ac0b	0.048015635
17	0xbe7d88af	-0.24759172
18	0xbd8ff713	-0.070295475
19	0x3db07158	0.086153686
20	0x3e98fda8	0.29881024
21	0x3f0a3fb3	0.5400345
22	0xbe16c10b	-0.14722078
23	0xbdcfaaef	-0.10140025
24	0xbe31f5fa	-0.17378989
25	0xbe5592b4	-0.20856744
26	0x3de23660	0.110455275
27	0xbe2bd7ac	-0.16781491
28	0xbd223b2b	-0.03960721
29	0x3b837420	0.004011646
30	0x3c59dfb4	0.013297964
31	0xbd3c3bb8	-0.04595539
32	0x3d29ffd4	0.041503742
33	0x3df5afc8	0.11996418
34	0xbc50a300	-0.012734175
35	0xbd0f2962	-0.034951575
36	0xbe2d2151	-0.1690724
37	0xbdae8681	-0.08521748
38	0x3ec93995	0.39301744
39	0x3c32730b	0.010891686
40	0xb9d679c9	-0.00040907998
41	0x3f196acf	0.599286
42	0x3e955869	0.29169014
43	0xbdfe90ce	-0.12429963
44	0x3d1dc437	0.038517203
45	0xbd58f35a	-0.052966453
46	0x3ecfe2e8	0.40602803
47	0x3cac2173	0.021012044
48	0xbbee6016	-0.007274638
49	0xbd23759c	-0.039907083
50	0xbde1a15e	-0.110171065
51	0x3f0f42b8	0.5596118
52	0xbe30bd96	-0.17259821
53	0x3d70fc23	0.058834206
54	0x3df6dd62	0.12053944
55	0x3e05daef	0.13071798
56	0xbe53eca8	-0.20695746
57	0xbd9845eb	-0.07435211
58	0x3dc05280	0.093907356
59	0xbcab0f94	-0.020881452
60	0x3cd7f04d	0.026359702
61	0x3e955817	0.2916877
62	0x3deae2f5	0.1146907
63	0xbde690ca	-0.11258085

model.4.weight f4 [4, 64]
0	0x3ea6cace	0.32576603
1	0x3db017ac	0.08598265
2	0x3e2d4c43	0.16923623
3	0xbee8a8f2	-0.45441395
4	0x3f04956f	0.5179052
5	0x3e2c9306	0.1685296
6	0x3f008548	0.5020337
7	0xbe7f2d2a	-0.24919572
8	0x3e31a3a3	0.17347579
9	0x3dfe01be	0.12402676
10	0xbd9e958e	-0.07743369
11	0x3e92f13f	0.2869968
12	0x3e73e2b6	0.23816952
13	0xbefcbc39	-0.49362352
14	0x3cd17b8d	0.025571609
15	0x3c45276e	0.012033327
16	0x3dcc2931	0.09968794
17	0xbe8dc757	-0.27691147
18	0xbc1a842a	-0.009430924
19	0x3e26d9e2	0.16294053
20	0x3e084e04	0.1331101
21	0x3e52b421	0.20576526
22	0x3d62b13c	0.055344805
23	0xbdf7520e	-0.120761976
24	0xbe631898	-0.2217735
25	0xbe3ee687	-0.18642627
26	0xbd6773d1	-0.056506936
27	0x3eb683f4	0.35647547
28	0x3e7c703f	0.24652193
29	0x3d325e4b	0.043546956
30	0xbd4f0538	-0.050542086
31	0x3e389b73	0.18028049
32	0x3e1d10dd	0.15338464
33	0x3e14766f	0.14498304
34	0x3d98eb1b	0.07466718
35	0x3df64b20	0.12026048
36	0xbd5b406c	-0.053528234
37	0xbe1d61f2	-0.15369394
38	0x3e0acefb	0.1355552
39	0x3df57cba	0.1198668
40	0xbd72eeaf	-0.059309658
41	0x3e1b5588	0.15169346
42	0x3e344203	0.17603306
43	0xbdaa7888	-0.08323771
44	0x3e10330d	0.14081974
45	0xbd6b625c	-0.05746685
46	0x3e44ac83	0.19206433
47	0x3eb9f483	0.3631936
48	0x3d276b35	0.040873725
49	0x3e38af4e	0.18035623
50	0xbe208fac	-0.15679806
51	0x3e9236c2	0.28557402
52	0x3e32d5d1	0.17464377
53	0x3e892b70	0.26790953
54	0x3dadc34c	0.084845155
55	0x3e30798d	0.17233868
56	0xbe909430	-0.28238058
57	0xbd66771f	-0.056265946
58	0x3db73d9f	0.089473
59	0x3d35015d	0.044190753
60	0xbefde0e7	-0.4958565
61	0x3e16fdb5	0.14745219
62	0x3f34230b	0.7036597
63	0x3d5242cf	0.051333245
64	0x3ea76f39	0.32702044
65	0x3e15d8a1	0.14633419
66	0x3ea1c2c1	0.31593898
67	0xbd1b6374	-0.037936643
68	0x3ea666e1	0.32500365
69	0x3e7e7409	0.24848951
70	0x3ee5136f	0.4474139
71	0xbe52d1ae	-0.20587799
72	0x3d43532c	0.04768674
73	0x3e19577d	0.1497478
74	0x3e034546	0.12819394
75	0x3e9971e8	0.29969716
76	0x3e6113ab	0.21980159
77	0xbe06ddd9	-0.13170566
78	0x3e64e3f4	0.22352582
79	0x3d8c2155	0.06842295
80	0xbd1f3bec	-0.038875505
81	0xbe4d5280	-0.20051003
82	0xbd98e27a	-0.07465072
83	0xbc4c3dfe	-0.012465952
84	0x3e0cc286	0.1374608
85	0x3e76352f	0.24043725
86	0xbd8344c6	-0.06409602
87	0x3e84be88	0.25926614
88	0xbd15632d	-0.036471535
89	0xbea4aa89	-0.32161358
90	0x3e16329d	0.14667745
91	0xbeacbc14	-0.33737242
92	0x3ecc1aa9	0.3986409
93	0x3ecdfd02	0.40232092
94	0x3d498dd7	0.049207535
95	0x3e1f4655	0.15554173
96	0x3ebc4c1d	0.3677682
97	0x3e804f4b	0.25060496
98	0x3e749cce	0.23887941
99	0x3d884460	0.066536665
100	0x3d9e21ff	0.07721328
101	0xbe0f65d9	-0.14003696
102	0x3e419a5e	0.18906543
103	0x3e9aaa57	0.30208084
104	0x3e1b25a4	0.15151078
105	0x3e634b29	0.2219664
106	0x3df7d152	0.121004716
107	0x3a0ef08d	0.0005452715
108	0x3e57703f	0.21038912
109	0xbc013bd9	-0.007887804
110	0x3e43a6a4	0.19106537
111	0x3e97e560	0.29667187
112	0x3e298a33	0.16556625
113	0xbe1f1dce	-0.15538713
114	0xbd30b220	-0.043138623
115	0x3e4721a7	0.19446431
116	0x3dce95d0	0.10087168
117	0x3ed85803	0.42254648
118	0x3e02d3ec	0.12776154
119	0x3e03f872	0.12887743
120	0xbe945d32	-0.28977352
121	0x3b4bbc34	0.003108752
122	0x3ce8e5f5	0.028429965
123	0xbe1dc1b6	-0.15405926
124	0xbde66cba	-0.11251207
125	0x3def252b	0.11677011
126	0x3f066eca	0.525128
127	0x3e28bb4e	0.16477701
128	0xbe38c1c4	-0.18042666
129	0xbd868607	-0.065685324
130	0x3e3c8d90	0.18413377
131	0x3e3c30cf	0.18377994
132	0x3ee015f8	0.4376676
133	0x3e2bfc90	0.16795564
134	0x3e3fb5ce	0.18721697
135	0xbe9b45a8	-0.3032658
136	0x3e08ea17	0.13370548
137	0x3e328da2	0.17436841
138	0xbe18252f	-0.14857934
139	0x3eccf9b5	0.4003426
140	0x3ea021a9	0.3127568
141	0xbebaf3a8	-0.3651402
142	0x3cd99592	0.026560578
143	0x3e5563c9	0.20838846
144	0xbe47ff48	-0.19530976
145	0xbe6208d1	-0.22073676
146	0xbd7b0d2a	-0.06129185
147	0x3e1143bc	0.14185995
148	0x3d8cf3f9	0.068824716
149	0x3e657166	0.2240654
150	0xbc8ac2c3	-0.016938573
151	0xbf275468	-0.6536317
152	0xbd0b6a72	-0.03403706
153	0xbe08b280	-0.13349342
154	0xbe968c89	-0.29404095
155	0x3e4c00e4	0.19922215
156	0x3f0f20ef	0.5590963
157	0x3f067546	0.52522695
158	0x3e7cadef	0.24675725
159	0x3de5f85f	0.11229014
160	0x3b5e4b7c	0.0033919504
161	0x3e5b27f1	0.21401955
162	0x3ee66483	0.4499856
163	0x3d1534c5	0.036427278
164	0xbd3d4ecc	-0.046217725
165	0xbf0937ce	-0.53600776
166	0x3e2e2a92	0.17008427
167	0xbdb01149	-0.08597047
168	0x3e7e5b70	0.24839568
169	0x3e6ad6c5	0.2293349
170	0x3e60ccfd	0.21953197
171	0x3d94c1cf	0.072635286
172	0x3eaa5700	0.332695
173	0x3eafa2f3	0.34304008
174	0x3e146811	0.14492823
175	0x3d349d7a	0.044095494
176	0x3eaafd65	0.3339645
177	0x3d1817aa	0.037131943
178	0xbe438b33	-0.19096069
179	0x3ea64505	0.32474533
180	0xbee8521b	-0.45375142
181	0x3e969e63	0.29417714
182	0x3e729bd9	0.23692264
183	0x3eafc8e0	0.34332943
184	0xbe3f69d1	-0.1869271
185	0x3da8080c	0.0820466
186	0xbd5cbac6	-0.05388906
187	0x3ecf6a1c	0.40510643
188	0xb9191a00	-0.00014600903
189	0x3e29fdce	0.16600725
190	0x3eef86fc	0.46782672
191	0xbe23c41a	-0.15992776
192	0x3f02e9a0	0.51137733
193	0x3e39e6e9	0.18154491
194	0x3e052386	0.13001832
195	0x3e439a4a	0.19101825
196	0x3e4f2cf7	0.20231996
197	0x3ead6be5	0.3387138
198	0x3e61fb56	0.22068533
199	0x3e2577c2	0.16158965
200	0x3e23c7e0	0.15994215
201	0x3e5b0799	0.21389617
202	0x3e23f9ad	0.16013213
203	0x3ea5ff10	0.3242116
204	0x3e16e23d	0.1473474
205	0x3ddca72b	0.10774072
206	0x3f175e45	0.5912822
207	0xbdf353f3	-0.118812464
208	0x3e4fd2ff	0.20295332
209	0xbe5c2b36	-0.21500859
210	0x3da81e40	0.08208895
211	0x3db7db22	0.08977343
212	0x3dc4c988	0.096087515
213	0x3e901dc7	0.28147718
214	0xbe7089dd	-0.2349009
215	0xbdb35360	-0.08756137
216	0xbe2484b1	-0.16066243
217	0xbe446c01	-0.19181825
218	0x3d85007e	0.064942345
219	0xbe873bc7	-0.26412794
220	0x3ea32ea9	0.31871536
221	0xbe931a7d	-0.28731146
222	0xbe0e884d	-0.13919182
223	0x3e85d137	0.2613618
224	0x3daf32e3	0.08554628
225	0x3e95c111	0.2924886
226	0xbd448b52	-0.04798443
227	0x3ef921bf	0.4865856
228	0xbecb0bf9	-0.39657572
229	0x3db35589	0.08756549
230	0x3e753896	0.23947367
231	0x3e7a6ea9	0.24456276
232	0x3ce12f1d	0.027488286
233	0x3e32db10	0.17466378
234	0x3e7821ae	0.24231598
235	0xbeeeecb2	-0.4666496
236	0x3ec8c1e1	0.39210418
237	0xbf257e2f	-0.64645666
238	0x3e38ce82	0.18047526
239	0x3ea67a58	0.32515216
240	0x3d8da3de	0.06916021
241	0xbd9b90a3	-0.07595947
242	0x3d8e84da	0.06958933
243	0x3e1b0136	0.1513718
244	0xbdb20c03	-0.08693697
245	0x3d8880a2	0.0666516
246	0x3e44cd31	0.192189
247	0x3e7b4a36	0.24540028
248	0xbe0c265e	-0.13686511
249	0xbe84e31d	-0.25954524
250	0xbdcb3614	-0.09922424
251	0xbc35a635	-0.01108699
252	0xbecac625	-0.39604297
253	0x3e861ef8	0.26195502
254	0x3e90a2ad	0.28249112
255	0x3f017de2	0.50582707

model.4.bias f4 [4]
0	0x3ed8489d	0.422429
1	0x3e913789	0.28362682
2	0x3e80f99c	0.25190437
3	0x3e638b87	0.22221194
