p1_navigation/checkpoint.pth (torch_old, 28517 bytes, 6 tensors)

model.0.weight f4 [64, 37]
00000000: ea46 7ebb e2b1 0d3d 2a84 47be 7a57 f03d
00000010: 4614 923d d3c0 233d 4a71 7abc 846f 7a3e
00000020: 8be7 efbb 3f2b 89bd d9b0 3ebd 77ad 1bbe
00000030: f5ab 5cbd 9228 423d 91e7 1b3d bea7 14be
00000040: 9fb8 893d eca2 733e 42ac d1bd 2c11 603d
00000050: 7c7e 0e3e ed35 403d dc15 4a3e 056a 2abe
00000060: 47a3 573e 1a80 9fbd e721 b43e e51c eabd
00000070: d069 edbd 643f 46be 65fe 8d3d ac6d 6c3d
00000080: e949 0fbe fe5f 86bc 1dce 14be 7d26 2ebe
00000090: 4d7f 62bd 11e2 1d3e eef0 853d 724e fa3c
000000a0: 86d6 503d 2fed 8fbd e12e 393e 1511 adbe
000000b0: 8840 a8be 8cad c1be 436d 29bf 08ab f13d
000000c0: b42e 2d3d 7da0 05be 9243 d23d 20b6 b73d
000000d0: 0f72 0c3d 7cf0 e03c dd2f 133e 5ab2 91bc
000000e0: 727f 393d d869 0cbe 4d31 d8bd 4939 73bc
000000f0: b25a 5abd 7538 b43d 1c2d c0bd ab7d 853d
00000100: ed86 6c3d f033 bd3d 67ea aebd 1687 bbbd
00000110: 5e39 803e b58f 8e3e 7b78 81bd e3c4 413e
00000120: 0a4a a4bc 007d 753d 8adf bf3d 5fb4 613e
00000130: 3553 0f3c 7968 3bbe 4f73 b93d ad9d 9abe
00000140: 937a bcbe 27c6 b53e 955a 66bd 921d aebe
00000150: e7e4 243e d52a 00bf f2a6 fa3d 0fa9 11bf
00000160: 34b4 2c3d 9259 523d 0547 f3bc 20d2 153e
00000170: e0dc 6fbd b3ed a83d 9903 813d 09b7 80be
00000180: a733 e63c 0516 59be f799 abbe 42aa a8bd
00000190: 097f 993d 48a0 603e c1eb 8fbe 2fd8 f8bd
000001a0: d43a babe 2722 143e 3502 e4bd 4350 3fbe
000001b0: 3549 9cbd 510a d63d fea6 9bbc 4ebe 723e
000001c0: c805 adbd 8729 cd3d 9003 2e3e c21b afbc
000001d0: b799 853c 9e4d f8bc 90b0 df3d 5b92 503d
000001e0: 7c35 d83e 1e0d 593c 7228 e8bd f7e3 123e
000001f0: 5f10 083c 4960 8eba ee9f d63b 5696 4f3c
00000200: a2e5 8cbd 6b4b f0bd d12b b8bc fd72 553d
00000210: d1ef b7bc efb0 373e d24b b43d 18c9 393d
00000220: 17ee 2e3e 7b40 72bc df18 45bd 9f8d 8abd
00000230: 6207 dbbb eef6 643e d997 ae3d e82d 0d3d
00000240: d23a a5be 58d1 f3be 8876 543d 4b29 043d
00000250: b298 ddbd 7fa5 14be e9ff 1cbe e7e3 c6bd
00000260: 6863 843b 2fd6 5f3d abab 043e 5f81 efbd
00000270: a684 94bc 02c3 4fbe 277e abbd 0e38 603d
00000280: 9c6a bdbd 4b4d 9fbd f572 f4bc 4454 73bd
00000290: 9719 d2bc 9ad0 8fbd 20d6 74be aa5b f33d
000002a0: cc5d ccbd 6b95 73be 4894 913d 9885 803d
000002b0: a7c4 823e 5003 a43d 98f7 5cbe 9b0a 893d
000002c0: 486e 403d 8b84 80bd 9e0c 5a3e e047 98be
000002d0: bad9 debd 9f53 c83d 8a28 683f 7050 a1bc
000002e0: bacb 1e3d 1255 ba3d 14e9 15be 26df 7fbd
000002f0: f61c ddbd 2b80 0ebe 6482 463e d23b 99bd
00000300: d7fb d0bd 4ae9 6fbe cdbc 08bf d783 03be
00000310: 5600 1fbe c8b2 933d 940c e8bd 5c5c c4bd
00000320: b528 6fbd e683 023e 3f79 b5bd 218f 21be
00000330: c1ac 7abd 256d e53c 972a 223c a5c8 3d3e
00000340: 4ece 53bd 2192 f43c dbd3 8abd a267 76bd
00000350: a7eb 1e3d 761f fc3d 7fc3 433e b1da b13d
00000360: 2755 98be 4c18 07be 6bda a83d 4447 46be
00000370: 3243 8abe 6e0c b03d 6001 a0bd e935 423e
00000380: 6ce6 9bbe 3397 cebd fb11 28be 68fa c1be
00000390: 8661 43bd 8b10 6a3c 4a48 f03d 0fb8 5d3e
000003a0: aa34 60be 5866 743e c67b 5b3e dfb2 a0bd
000003b0: fe8d 793e d907 b6be ffff ae3c 4072 e6bb
000003c0: be51 903d 3108 18be 5cb1 34be 9b7c b0bd
000003d0: 3b52 a23e 52fc 443d e6ca 9abc ebf7 7abe
000003e0: a52f 953d af6f e4bd bae9 84be bb7d 29bd
000003f0: 90b3 0dbd 66e2 ed3b debd cebd d6e2 7d3c
-0.0038799592 0.03459347 -0.1948401 0.11735435 0.07132773 0.039978813 -0.015285799 0.24456602
-0.0073213032 -0.06697702 -0.046555374 -0.1520289 -0.05387493 0.047401972 0.038062636 -0.14517114
0.06724667 0.23792619 -0.10237934 0.054703876 0.13915437 0.046926428 0.19734901 -0.16642006
0.21058379 -0.07788105 0.35182115 -0.114312924 -0.11592448 -0.19360119 0.069332875 0.05772178
-0.13993038 -0.016403195 -0.14531751 -0.1700687 -0.055297185 0.15418269 0.06540094 0.030554984
0.050985835 -0.07027661 0.18084289 -0.33802095 -0.32861733 -0.37827718 -0.66182345 0.118002
0.042280868 -0.13049503 0.10266794 0.089702845 0.034288462 0.027458422 0.14373727 -0.01778524
0.045287557 -0.13712251 -0.105562784 -0.014845201 -0.05330915 0.08799831 -0.09383604 0.0651811
0.057745863 0.09238422 -0.085408024 -0.09156625 0.25043768 0.27844015 -0.06321808 0.18922763
-0.020054836 0.059933662 0.093688086 0.22041462 0.008747865 -0.18301572 0.090551965 -0.30198422
-0.36812267 0.3550274 -0.05623873 -0.34006935 0.16102944 -0.50065356 0.122388735 -0.5689859
0.042164043 0.051354952 -0.02969695 0.14630938 -0.058560252 0.082484625 0.06299514 -0.25139645
0.028100802 -0.21199806 -0.33515903 -0.08235599 0.07494933 0.21936142 -0.28109553 -0.12150609
-0.36373007 0.14466153 -0.111332335 -0.18682961 -0.07631151 0.104511864 -0.019000527 0.23705408
-0.08448368 0.10017686 0.16993546 -0.02137554 0.016308649 -0.030310448 0.109223485 0.050920825
0.42228305 0.013247756 -0.11335839 0.14344774 0.008304684 -0.0010862435 0.006549827 0.01267012
-0.068797365 -0.11733135 -0.02248183 0.052111614 -0.02245322 0.17938589 0.08803524 0.045357794
0.17083012 -0.014785881 -0.048119422 -0.06765293 -0.0066842297 0.22359821 0.085250564 0.034467608
-0.3227144 -0.47620654 0.051870853 0.032265943 -0.1082014 -0.14516257 -0.15331997 -0.09711438
0.0040401705 0.05464762 0.12956111 -0.116945975 -0.018129658 -0.20289233 -0.08373671 0.054740958
-0.0924885 -0.07778414 -0.029839972 -0.059406534 -0.025646968 -0.070222095 -0.23909807 0.11882718
-0.09978828 -0.23787467 0.071083605 0.06275481 0.2554066 0.08008444 -0.21578825 0.06691476
0.046980172 -0.062752806 0.21293876 -0.29742336 -0.10881372 0.097815745 0.9068686 -0.019691676
0.038768508 0.09098257 -0.14639693 -0.06246867 -0.107965395 -0.1391608 0.19385678 -0.07482113
-0.10204285 -0.23428836 -0.5341309 -0.12843262 -0.15527472 0.07211834 -0.11330524 -0.09587929
-0.05838843 0.12745628 -0.088610165 -0.15777256 -0.061199907 0.028006146 0.0098978495 0.18533571
-0.05171042 0.029854836 -0.067786895 -0.060157426 0.038798954 0.12310688 0.19117545 0.0868429
-0.29752466 -0.13192862 0.08244785 -0.19363123 -0.2700439 0.08596121 -0.07812762 0.18965878
-0.30449235 -0.10087433 -0.16413109 -0.37886357 -0.047700427 0.014286171 0.11732538 0.21652244
-0.2189509 0.23867166 0.21433935 -0.07846617 0.24370572 -0.35552862 0.021362303 -0.0070326626
0.07046841 -0.14846875 -0.17645782 -0.086175166 0.31703362 0.048092194 -0.018895578 -0.24508636
0.07284478 -0.111541145 -0.2595957 -0.04137967 -0.034595072 0.007259655 -0.10094808 0.015495976

model.0.bias f4 [64]
00000000: 7dc9 133e 7ccd 76bc c91d ebbd 9df6 a73b
00000010: 90d1 023e 2d05 8dbd 1f41 f0bd f855 bb3d
00000020: a343 81bd 0ca8 45be efe9 e93d 415d 253e
00000030: bfbe d93d 4eb2 003e db47 8dbd c6a8 cabd
00000040: a953 cc3d 16ee b3bc c5ee 2dbc 1e2e 5cbe
00000050: 0fe6 1ebe d479 893d 6fb5 c43c 27a3 09be
00000060: 808d 27be 9f14 463e f871 583d 220b e7bd
00000070: 5b94 e63d fd21 2a3e 1668 ffbd 4485 15be
00000080: 6317 0e3e f518 27bc dc7f 8bbd b6cc e53d
00000090: d765 88bc 6ce3 8f3d 023f adbc ba3f f8bd
000000a0: a77f 28be 5297 3c3a 28e6 10be 1aa8 183e
000000b0: 7f23 193d b6cc d4bd df28 403d 8182 5dbe
000000c0: c3fe b0bd ba2a 2e3d 4020 12be 376a 2e3d
000000d0: 8cc1 1dbd f181 d4bd 3394 18be 72dd 703c
000000e0: 3d10 c53d 8029 bfbd ed47 0dbe b4a7 e2bd
000000f0: fed8 573d ffbf d63c e7da 1c3d 1931 6e3d
0.1443233 -0.01506364 -0.114802904 0.005125834 0.12775254 -0.06885753 -0.11731171 0.091472566
-0.06311729 -0.19302386 0.114215724 0.16148855 0.10632085 0.12568018 -0.06898471 -0.09895472
0.099768944 -0.021964114 -0.010616009 -0.21501967 -0.15517448 0.0671269 0.024012296 -0.13441144
-0.16362572 0.19343804 0.052843064 -0.1128142 0.11258765 0.16614528 -0.12471025 -0.14601618
0.13876109 -0.010198821 -0.068114966 0.11220686 -0.016650124 0.07025799 -0.021148209 -0.1212153
-0.16454946 0.00071941793 -0.14150298 0.14907876 0.037387367 -0.10390608 0.046913978 -0.21631815
-0.08642342 0.042521216 -0.14270115 0.042581763 -0.03851466 -0.10376347 -0.14900284 0.014701234
0.09622238 -0.09334087 -0.13796969 -0.11067143 0.052697174 0.026214598 0.0382947 0.058152292

model.2.weight f4 [64, 64]
00000000: 01f2 2abd b026 3f3e af8e a03d 9401 15be
00000010: f42b 9dbc 3a36 9cbd fea3 cabd ed92 b3bc
00000020: feef 72be 65be 583d db09 213e 210d 66be
00000030: 943c 21bd 73ca 8e3b 56da 223b 2ba7 613c
00000040: f1b0 95bb 84f1 06bd c11a dd3b 15a2 6dbd
00000050: 7004 12bc d330 0bbd 3b45 0d3d 3293 d1bd
00000060: 26ee 73be ba1a dfbc e25b ab3d 0dc1 483f
00000070: 7ead 463d 442f 03bf b0a9 a33d d6cd 49bd
00000080: 4935 593d 72a9 213e 15ad aa3d 9b76 6a3e
00000090: cdad 85bd 9067 353e a522 4c3e 560d aabd
000000a0: 425a 42bd 5b03 f7bc 7047 a93e b174 243d
000000b0: dda3 263e aa80 b0bb 5b43 b9be a30c 94be
000000c0: 910d 8ebc 2295 4b3d 5c82 c8bd e84c 723d
000000d0: 2d90 f2bd bb65 c9be 388d a53d f28c 48be
000000e0: da42 2ebe 3472 2ebd 8970 90be dd89 88bd
000000f0: 1ecf 293d 374e 8bbd cb4e 75be a50a 12be
00000100: 880a 053d 8004 f93d bd3b 08be 639c 97bd
00000110: 9103 bf3d b1a7 7e3d 91f1 a0bd 7c36 103d
00000120: c6d6 99bd 3d5d 01be 85d9 97bc 27d7 423e
00000130: 973e 16be 6639 aa3d 952d 18be 0e08 87be
00000140: e16d 233b 98b5 ac3c 5b8d 0ebe 1df8 1abe
00000150: 944f f13c bb32 41be 4cff b53d 0e27 bfbe
00000160: 526b 593d 341d 9d3c 8213 cdbd 6ea6 75be
00000170: 4a75 d03d e1d2 293e 17e3 19be 23d0 bdbe
00000180: b2a5 9abd 3c57 95bd 7a96 193e 8e3a 3fbe
00000190: ecc0 443d cda4 1e3e 6d3a c43e c3a9 f9bd
000001a0: 99df 99bc 9026 453e 7dc1 793d ac64 febd
000001b0: d0ca 66bd d6a7 2abe 914b 0ebe 52a8 25bc
000001c0: 80dc 25be e099 2dbe e694 f0bc b898 aa3d
000001d0: 0ef0 b5bd f324 8cbe 3fb3 2a3b b464 52bc
000001e0: c6ef 77bd c369 bf3d eb98 e53d 000b 543d
000001f0: 810b 05be 3234 713d 52ec 9ebd 2477 c5bd
00000200: 7037 bdbd 2b30 26bd 5bde 2b3c b297 3cbe
00000210: 4b08 453d cdb2 6e3d 7de4 36be 68ee 48bd
00000220: eb46 4d3d 09d6 80bd 0da8 2bbd 16fa e13d
00000230: da80 243e d29c 033e 0143 27be 8e4e c43c
00000240: 165c 0ebe 39f8 e03d cac9 6e3d 6290 e6bd
00000250: 2f0b d8bd 7cd3 853e 321d bc3d 03f7 82be
00000260: 3556 f33d 55eb dc3c 552f ea3d 0f46 11bc
00000270: 8e42 0cbd cc50 c23e 87b9 80be 311d b03d
00000280: fe12 eebd 51a1 8abd f102 ddbd f585 1f3d
00000290: 4d95 c73b 8a70 483e 76e6 f53e 502b 883c
000002a0: 3e5c 243e 4e07 323e 1776 913c e4ed 42be
000002b0: cc2e 9ebd e763 ef3a 3058 0cbd d6fe 41bd
000002c0: 53b7 633c 5daf 2fbe c5d2 2cbe 4296 b13d
000002d0: e63c dfbd ccd0 0ebd ac1d 02be a290 a9bd
000002e0: 73db 6dbc 23f2 a4bd c0af 0d3e f80a e7bc
000002f0: 51fa f7bd d95e f93d 113e e9bd 9031 0c3e
00000300: 6c63 92bc 5b32 e5bd bbf3 a6bd f47b 26bd
00000310: f7e0 bebd 032b 99be f9fd e4bd 4c4b 15be
00000320: 7130 85be 97b6 14bd a6d1 1dbe 0d9e 443e
00000330: 0991 1fbd 12ac 3f3e 295a e8bd 9311 3abd
00000340: 9955 d63d cf22 10bc f56d d3bd 9109 33bd
00000350: 3509 b1bd 28da 953d 1b9f 743d 4b0a acbd
00000360: cda3 a53d ccd1 1ebe 5320 fd3d 1940 7bbe
00000370: a359 c0be f5d3 97be 3163 503e 5d2c 5dbd
00000380: 8322 33be b3eb a0bd 8b84 483e 2f46 943d
00000390: 50fc babd bcd8 833a d461 0b3d 684f 9a3d
000003a0: 7ab6 c43c ed33 3dbe f1dc 6abd 416e 10be
000003b0: 27b7 123d a2d7 543d 2ce8 f83c 719b 413c
000003c0: 9946 4b3d 6d15 09be 75ea 4ebe a2ca ae3d
000003d0: 9fd9 db3d c79c 88be 104a a6bd c44f c63d
000003e0: 9ea2 98be 846c 5fbe ee69 02be 5aa1 4c3d
000003f0: 9888 4b3c 5683 94be 7414 7fbb b1bd 513c
-0.0417347 0.18667102 0.07839715 -0.14551383 -0.019185998 -0.076275304 -0.0989456 -0.021920646
-0.23724362 0.05291595 0.15726416 -0.22465946 -0.039364412 0.00435763 0.0024849377 0.013772766
-0.004568212 -0.03294517 0.006747574 -0.0580159 -0.008912191 -0.03398211 0.03448985 -0.102331534
-0.23821315 -0.027234424 0.08367135 0.7841957 0.0485053 -0.51243997 0.0799135 -0.049268566
0.053029332 0.15787295 0.08333794 0.22896807 -0.065272905 0.17715287 0.19935091 -0.08303325
-0.047449358 -0.030152967 0.33062315 0.040150348 0.16273446 -0.0053864317 -0.361842 -0.2891589
-0.017340453 0.04970277 -0.09790489 0.059155375 -0.118439056 -0.39335427 0.08083576 -0.19585016
-0.1701769 -0.04258938 -0.28210858 -0.0666692 0.041457288 -0.06802028 -0.23955838 -0.14261873
0.032480747 0.121590614 -0.13304038 -0.07402875 0.09326852 0.06217164 -0.07858575 0.03520821
-0.07511668 -0.12633224 -0.018536339 0.19027387 -0.14672314 0.08311729 -0.14861138 -0.26373333
0.002493732 0.021082684 -0.1392111 -0.1513371 0.029456891 -0.18867008 0.08886585 -0.37334484
0.053080864 0.019178964 -0.100134864 -0.23989269 0.10178621 0.1658435 -0.15028034 -0.37072858
-0.07551135 -0.07292029 0.14998809 -0.1867468 0.048035547 0.15492554 0.38325825 -0.121905826
-0.018783377 0.19252992 0.06097554 -0.124215454 -0.05634576 -0.16665587 -0.13896014 -0.0101109315
-0.16197395 -0.1695323 -0.029367875 0.0832991 -0.088836774 -0.2737194 0.002604678 -0.012841392
-0.0605314 0.09346344 0.112108074 0.051768303 -0.1299267 0.058887668 -0.07759918 -0.09641865
-0.092390895 -0.04057328 0.010490025 -0.18417242 0.048103612 0.058275986 -0.17860599 -0.049055487
0.05011646 -0.06290824 -0.041908313 0.11034028 0.16064778 0.12852791 -0.16334154 0.023963239
-0.13902315 0.10984845 0.05829791 -0.112580076 -0.10549008 0.26137912 0.09185256 -0.2557908
0.11881677 0.026967684 0.11434809 -0.008866801 -0.03424316 0.37952268 -0.25141546 0.08599318
-0.11624716 -0.0676905 -0.10791577 0.03894611 0.006090796 0.1957418 0.4802739 0.016622216
0.16050813 0.17385599 0.017756505 -0.1903606 -0.077237695 0.0018264026 -0.03426379 -0.04736217
0.013898688 -0.1715674 -0.16877277 0.086712375 -0.10900287 -0.034867093 -0.12706631 -0.0827954
-0.014517653 -0.080539964 0.13836575 -0.028203472 -0.12108291 0.12176294 -0.11388791 0.13690782
-0.017869674 -0.11191245 -0.08151957 -0.040645555 -0.093202524 -0.29915628 -0.11181254 -0.14579505
-0.2601352 -0.036306944 -0.15412006 0.19200917 -0.038956676 0.18717983 -0.11345322 -0.045426916
0.10465545 -0.0087973615 -0.10323707 -0.043710295 -0.08644334 0.07317001 0.059722047 -0.08400401
0.08087883 -0.15509719 0.12359681 -0.2453617 -0.37568387 -0.29653898 0.20350339 -0.053997386
-0.17493634 -0.07857456 0.19581811 0.07239949 -0.09130156 0.0010059099 0.034028843 0.07534677
0.024012793 -0.1847684 -0.057339612 -0.14104559 0.0358192 0.051963456 0.030384146 0.011816845
0.049627874 -0.1338708 -0.20206626 0.08534743 0.10734867 -0.26682112 -0.08119595 0.09683183
-0.29811567 -0.21818739 -0.12735721 0.049958564 0.012422703 -0.2900645 -0.0038922103 0.012801574

model.2.bias f4 [64]
00000000: 8ea4 313d 09bb 61bd 026b c23c fcdc d73d
00000010: ba32 c33d 6db9 05be ddf6 aeb9 3bbf 923d
00000020: 97dd 5e3e e83f 8e3e 2b39 71ba a0ff 5f3e
00000030: 599a 023d 1b6c c6bc e417 9ebd 5906 0ebc
00000040: b1e4 9c3d 513a ddbd 0c47 bdbd 684e c0bc
00000050: 7882 143e 5fb4 983e c9b4 09be 808d a8bd
00000060: 9b8a 07be 5a4e 06be d0cc f33d 6bfd 01be
00000070: 3a8b a5bd ddea 513d bf64 be3d 07eb eebd
00000080: 8844 11bd da1f 983d 4f58 62bb a5a0 ffbc
00000090: bac0 27be 09b1 aabd a329 593e fb92 d2bd
000000a0: d59b 73bd b26b a93e 8987 153e 259b 26bd
000000b0: 86ca d9bc 163a b3bd 647c 163e 9961 d2bd
000000c0: 87d2 c73c 67ba e9bd 8750 06be ba9d 933e
000000d0: 8bd5 d7bd bd3d b1bb f717 b23c db22 87bc
000000e0: df52 16be 6c33 8fbd 060b 303d d024 0cbd
000000f0: 8330 893d 9b27 0f3e 2323 063e a1a2 24be
0.043369822 -0.05511001 0.023732666 0.10540196 0.0953116 -0.13059016 -0.00033371794 0.071653806
0.21764217 0.27783132 -0.0009201939 0.21874857 0.03188548 -0.02422147 -0.077194005 -0.008668506
0.07660807 -0.108021386 -0.09242067 -0.023474887 0.14502895 0.29825112 -0.1344787 -0.08230114
-0.13236468 -0.13115826 0.11904299 -0.12694328 -0.08083196 0.051249374 0.092965595 -0.11665922
-0.035465747 0.0742795 -0.00345375 -0.031204531 -0.16382113 -0.08334548 0.2120729 -0.102819405
-0.059474785 0.33089978 0.14602484 -0.0406753 -0.026585829 -0.087513134 0.14695889 -0.102725215
0.02439238 -0.114125066 -0.13116656 0.28831273 -0.10538777 -0.005408971 0.021739943 -0.016496113
-0.1468005 -0.0699223 0.042979263 -0.034214795 0.06698706 0.13979952 0.13099341 -0.16077663

model.4.weight f4 [4, 64]
00000000: 36ac 273e 3fdb 113e 91cb 173e d1a7 6dbe
00000010: ab9f 943d b68c f6bc ccaa 223f c312 383d
00000020: a9f4 f93d 7a0b 903d 46d1 a5bd c6f1 163e
00000030: 29db 5f3e 2c05 e1be be27 64bb 0b58 59bc
00000040: 3366 893c bc53 48be eed1 81bd 1b75 3c3e
00000050: 5678 9b3d 2365 163e bb12 2fbd 9375 a0be
00000060: 9d11 59be 9e4e b5bd 9ff9 04be 71f0 4a3e
00000070: e900 1a3e 8ddd cd3d 9bd4 8abd 48e4 c93d
00000080: eb58 333e 466f 2f3e 1a2c f23c 4d25 2d3e
00000090: 08e0 1fbd ac8e d1bc b78d b93d fd4c a93d
000000a0: 99a5 ce3d 8ad3 c83d d474 df3d 2882 143d
000000b0: 8bc8 263b 02ef f8bc b426 0c3e 2cda 9a3e
000000c0: b6d5 223c 0a3a 7b3e d69a a8be a89e 493e
000000d0: 9cf0 983d 733a 1b3e 8ac4 fa3d b0d3 893d
000000e0: a49e 72be 9a92 91bd b922 073e 71b4 cb3b
000000f0: bcee 8fbe 4ac1 093e 3b09 103f 5bfc 8bbc
00000100: 6bbc bf3e 8592 9f3c 7986 a33e a390 ecbd
00000110: 1130 013e fff6 ea3e fc57 913e e9eb 37be
00000120: 88d8 6dbc ffb5 da3d 753a ac3d 2166 8c3e
00000130: 74a7 fb3c 1e4d 4f3d 0e05 9fbd 446a 113e
00000140: 48ea f1bd bc9f 0fbe e4af 4dbe 04d1 f53d
00000150: cc60 073e 9555 393e 7eda cebd 5e9c 313e
00000160: f443 d33c a332 55be 67c3 9a3d 04ef b7be
00000170: 86ea 03bd 57b6 573e 5373 12bd 35c1 533d
00000180: 0154 af3e 1e1e 0a3d b4df 843e a6e6 30bd
00000190: 659a 8dbd e321 a6bd 9602 413e a1f1 b03e
000001a0: 6d5f 3f3e 6dd1 163e 5d0b 513d d887 ba3d
000001b0: 17b4 8abe cfad 1c3d 5d22 113e 9d83 1e3e
000001c0: b7c0 073d f481 22bd 5fd2 1fbe 9424 c73d
000001d0: e47c 583d a207 2f3e 54ec ac3e bc95 473d
000001e0: ca2e 83bd ad92 f2bd 86bd 8d3d 0ad9 1ebe
000001f0: 6fce 7abe 4994 fd3d 84b7 8e3e 6ad9 ab3d
00000200: f08c 53be 3fcb bbb9 f545 4d3e a9ef 9cbe
00000210: d06c 613e b352 0e3e 0317 dc3e 1fab ea3d
00000220: 85b7 a03d f55f bb3d 4923 c0bd 1716 5d3e
00000230: 1fe7 e63e c0ba 89be 85c9 0fbe af51 513e
00000240: f90c b8bd ce26 52be 1747 9ebe 8228 813c
00000250: 7d13 d8bb 35bf 493e 604c f73c eb51 99be
00000260: 51aa d1bd b2ad ccbd 99e4 00be 07c4 bc3d
00000270: 8084 743e 555e be3e 46ef 683e f426 c2bd
00000280: b99a d23c 1245 1c3d 0846 503e 9258 843e
00000290: faaa b33d a17e 9dbe e476 ef3d 36cd 87bd
000002a0: 3e79 373e fb94 1a3e c95f b33d 180e 9d3b
000002b0: 6654 303e e017 13be bd69 0d3e d60c f2bd
000002c0: 0893 a03e ed6e b93d 0e22 64be 577b 4b3e
000002d0: 5396 d63c dc39 d03e acbe 0a3e 6469 c73d
000002e0: 1407 89be 7be5 343e 5fea 93bc 4b6e a13d
000002f0: 65f7 44be 3e0b dd3d 38f9 393e af4f bbbe
00000300: a3d2 9e3e 8a9b 1e3e 8418 223e 7da6 2bbe
00000310: 2a1d 033e 9593 913e 5b64 8e3d 123f 303e
00000320: 31c0 e03d 34f4 153e 7ad2 243e 8510 6f3e
00000330: af4c 9d3e 3264 fbbd aad9 bf3e 2406 93bd
00000340: dc0c 523e c20d 5abe ed68 d0bc c2a5 963c
00000350: 285f ff3c 3df6 463e 173b 2bbe 39af 853e
00000360: 6119 3fbe 6ca0 c13c f1a1 883e 730c 8ebe
00000370: 5e5c a03e 25f0 0ebe d856 5ebe 573a d13d
00000380: a6c7 cb3c f7e8 af3e d9fb dabd 05f9 153d
00000390: 16f7 b8be adb9 a23c 20da 343e 760b 843d
000003a0: 18a5 353d dbba f73d bcce 393e 2602 93be
000003b0: 24f7 883e 1498 e6be 9147 f93d 9d8f d23e
000003c0: c987 8a3e 55f3 a5bd 1d23 0dbe d48f 033e
000003d0: e276 e6bd 995a e8bd 710c 403e 0b22 ef3d
000003e0: a8c1 05be 3f58 1ebe f2db b3bb 8961 bbbd
000003f0: a026 76be 9e5b 5b3e beed 7e3e 1069 183e
0.16374287 0.14243792 0.14823748 -0.23208548 0.07257017 -0.030096393 0.63541865 0.044939768
0.12204868 0.07033439 -0.08096556 0.14740667 0.21860947 -0.43949258 -0.0034813727 -0.01326562
0.016772365 -0.19563192 -0.06338869 0.18404047 0.07591312 0.14687018 -0.042742472 -0.31339702
-0.21198125 -0.08852886 -0.12985848 0.19818284 0.1503941 0.10052023 -0.067788325 0.09857994
0.17514388 0.17132291 0.029562045 0.1690876 -0.039032012 -0.025580727 0.09060233 0.082666375
0.10090179 0.09805973 0.10910955 0.03625694 0.0025449123 -0.030387405 0.13686639 0.30244577
0.009938648 0.24533859 -0.3293063 0.19689429 0.074677676 0.15159015 0.12244518 0.06729829
-0.23693329 -0.0710804 0.1319684 0.0062165787 -0.28111827 0.1345264 0.56264085 -0.017088106
0.3744844 0.019479046 0.31938532 -0.11551025 0.12615992 0.45891568 0.2838744 -0.17961086
-0.014516957 0.10679244 0.08409587 0.27421668 0.030719496 0.050610654 -0.07764636 0.14200693
-0.11812264 -0.14025778 -0.20086628 0.12002757 0.13220519 0.18099053 -0.10100268 0.17344806
0.025789239 -0.20820098 0.07556801 -0.35924542 -0.03220608 0.21065651 -0.035754513 0.05169793
0.34243777 0.03372013 0.25951922 -0.043188713 -0.06914214 -0.08111932 0.18848643 0.34559348
0.18688746 0.14728327 0.051036227 0.091079414 -0.27090523 0.038251694 0.14173265 0.15479894
0.03314277 -0.039674714 -0.15607594 0.097237736 0.05285348 0.17092755 0.33774054 0.048726782
-0.06405409 -0.118443824 0.06920914 -0.15512481 -0.2449281 0.12381799 0.27874386 0.08391078
-0.20659232 -0.0003581885 0.20046218 -0.30651596 0.22014165 0.13898735 0.42986307 0.1145842
0.078475036 0.09149162 -0.0938173 0.21590458 0.45098206 -0.2690029 -0.14041717 0.20441316
-0.08986849 -0.20522615 -0.30913612 0.015766386 -0.00659412 0.19701846 0.030187786 -0.2994531
-0.102375634 -0.09994067 -0.12587203 0.09217077 0.2387867 0.37181345 0.22747526 -0.09480086
0.025708543 0.038151808 0.20339215 0.25848824 0.087728456 -0.30760673 0.116925985 -0.06630938
0.17917344 0.15095894 0.08758504 0.00479294 0.17219695 -0.14364576 0.13809867 -0.118188545
0.31362176 0.090543605 -0.22278616 0.19871269 0.026194727 0.40669143 0.13549298 0.097368985
-0.26763213 0.17665665 -0.018056093 0.07882365 -0.19234999 0.1079316 0.18161476 -0.3658423
0.31020078 0.15489021 0.15829664 -0.16762729 0.12804094 0.2843291 0.06952735 0.1721156
0.109741576 0.14643937 0.16095915 0.23346145 0.30722567 -0.1227497 0.37470752 -0.071789056
0.20512718 -0.2129431 -0.025440658 0.018389586 0.031173304 0.1942987 -0.1672176 0.26110247
-0.18662025 0.023636065 0.2668605 -0.27743873 0.3132047 -0.13958795 -0.21712816 0.102162056
0.024875473 0.34357426 -0.106925674 0.036614437 -0.36126012 0.019863928 0.17661333 0.064474985
0.0443469 0.12096187 0.18145269 -0.28712577 0.26751053 -0.450379 0.12171853 0.41125193
0.2705672 -0.081030525 -0.13782926 0.12847835 -0.11253144 -0.11345405 0.18754746 0.11676415
-0.13062155 -0.1546335 -0.005488866 -0.09149463 -0.24038172 0.21421668 0.24895379 0.14883828

model.4.bias f4 [4]
00000000: 7099 583e dd96 1a3e 3997 fc3d 6cc2 723d
0.21152282 0.15096612 0.12333531 0.059267446
